…
I0424 00:29:49.301933  5292 net.cpp:294] The NetState phase (0) differed from the phase (1) specified by a rule in layer accuracy
I0424 00:29:49.302215  5292 net.cpp:51] Initializing net from parameters: 
name: "AlexNet"
state {
  phase: TRAIN
  level: 0
  stage: ""
}
layer {
  name: "data"
  type: "Data"
  top: "data"
  top: "label"
  include {
    phase: TRAIN
  }
  transform_param {
    mirror: true
    crop_size: 48
    mean_file: "fer2013_mean.binaryproto"
  }
  data_param {
    source: "fer2013_train_lmdb"
    batch_size: 100
    backend: LMDB
  }
}
layer {
  name: "conv1"
  type: "Convolution"
  bottom: "data"
  top: "conv1"
  param {
    lr_mult: 1
    decay_mult: 1
  }
  param {
    lr_mult: 2
    decay_mult: 0
  }
  convolution_param {
    num_output: 96
    kernel_size: 11
    stride: 4
    weight_filler {
      type: "gaussian"
      std: 0.01
    }
    bias_filler {
      type: "constant"
      value: 0
    }
  }
}
layer {
  name: "relu1"
  type: "ReLU"
  bottom: "conv1"
  top: "conv1"
}
layer {
  name: "norm1"
  type: "LRN"
  bottom: "conv1"
  top: "norm1"
  lrn_param {
    local_size: 5
    alpha: 0.0001
    beta: 0.75
  }
}
layer {
  name: "pool1"
  type: "Pooling"
  bottom: "norm1"
  top: "pool1"
  pooling_param {
    pool: MAX
    kernel_size: 3
    stride: 2
  }
}
layer {
  name: "conv2"
  type: "Convolution"
  bottom: "pool1"
  top: "conv2"
  param {
    lr_mult: 1
    decay_mult: 1
  }
  param {
    lr_mult: 2
    decay_mult: 0
  }
  convolution_param {
    num_output: 256
    pad: 2
    kernel_size: 5
    group: 2
    weight_filler {
      type: "gaussian"
      std: 0.01
    }
    bias_filler {
      type: "constant"
      value: 0.1
    }
  }
}
layer {
  name: "relu2"
  type: "ReLU"
  bottom: "conv2"
  top: "conv2"
}
layer {
  name: "norm2"
  type: "LRN"
  bottom: "conv2"
  top: "norm2"
  lrn_param {
    local_size: 5
    alpha: 0.0001
    beta: 0.75
  }
}
layer {
  name: "pool2"
  type: "Pooling"
  bottom: "norm2"
  top: "pool2"
  pooling_param {
    pool: MAX
    kernel_size: 3
    stride: 2
  }
}
layer {
  name: "conv3"
  type: "Convolution"
  bottom: "pool2"
  top: "conv3"
  param {
    lr_mult: 1
    decay_mult: 1
  }
  param {
    lr_mult: 2
    decay_mult: 0
  }
  convolution_param {
    num_output: 384
    pad: 1
    kernel_size: 3
    weight_filler {
      type: "gaussian"
      std: 0.01
    }
    bias_filler {
      type: "constant"
      value: 0
    }
  }
}
layer {
  name: "relu3"
  type: "ReLU"
  bottom: "conv3"
  top: "conv3"
}
layer {
  name: "conv4"
  type: "Convolution"
  bottom: "conv3"
  top: "conv4"
  param {
    lr_mult: 1
    decay_mult: 1
  }
  param {
    lr_mult: 2
    decay_mult: 0
  }
  convolution_param {
    num_output: 384
    pad: 1
    kernel_size: 3
    group: 2
    weight_filler {
      type: "gaussian"
      std: 0.01
    }
    bias_filler {
      type: "constant"
      value: 0.1
    }
  }
}
layer {
  name: "relu4"
  type: "ReLU"
  bottom: "conv4"
  top: "conv4"
}
layer {
  name: "conv5"
  type: "Convolution"
  bottom: "conv4"
  top: "conv5"
  param {
    lr_mult: 1
    decay_mult: 1
  }
  param {
    lr_mult: 2
    decay_mult: 0
  }
  convolution_param {
    num_output: 256
    pad: 1
    kernel_size: 3
    group: 2
    weight_filler {
      type: "gaussian"
      std: 0.01
    }
    bias_filler {
      type: "constant"
      value: 0.1
    }
  }
}
layer {
  name: "relu5"
  type: "ReLU"
  bottom: "conv5"
  top: "conv5"
}
layer {
  name: "pool5"
  type: "Pooling"
  bottom: "conv5"
  top: "pool5"
  pooling_param {
    pool: MAX
    kernel_size: 3
    stride: 2
  }
}
layer {
  name: "fc6"
  type: "InnerProduct"
  bottom: "pool5"
  top: "fc6"
  param {
    lr_mult: 1
    decay_mult: 1
  }
  param {
    lr_mult: 2
    decay_mult: 0
  }
  inner_product_param {
    num_output: 4096
    weight_filler {
      type: "gaussian"
      std: 0.005
    }
    bias_filler {
      type: "constant"
      value: 0.1
    }
  }
}
layer {
  name: "relu6"
  type: "ReLU"
  bottom: "fc6"
  top: "fc6"
}
layer {
  name: "drop6"
  type: "Dropout"
  bottom: "fc6"
  top: "fc6"
  dropout_param {
    dropout_ratio: 0.5
  }
}
layer {
  name: "fc7"
  type: "InnerProduct"
  bottom: "fc6"
  top: "fc7"
  param {
    lr_mult: 1
    decay_mult: 1
  }
  param {
    lr_mult: 2
    decay_mult: 0
  }
  inner_product_param {
    num_output: 4096
    weight_filler {
      type: "gaussian"
      std: 0.005
    }
    bias_filler {
      type: "constant"
      value: 0.1
    }
  }
}
layer {
  name: "relu7"
  type: "ReLU"
  bottom: "fc7"
  top: "fc7"
}
layer {
  name: "drop7"
  type: "Dropout"
  bottom: "fc7"
  top: "fc7"
  dropout_param {
    dropout_ratio: 0.5
  }
}
layer {
  name: "fc8"
  type: "InnerProduct"
  bottom: "fc7"
  top: "fc8"
  param {
    lr_mult: 1
    decay_mult: 1
  }
  param {
    lr_mult: 2
    decay_mult: 0
  }
  inner_product_param {
    num_output: 1000
    weight_filler {
      type: "gaussian"
      std: 0.01
    }
    bias_filler {
      type: "constant"
      value: 0
    }
  }
}
layer {
  name: "loss"
  type: "SoftmaxWithLoss"
  bottom: "fc8"
  bottom: "label"
  top: "loss"
}
I0424 00:29:49.303980  5292 layer_factory.hpp:77] Creating layer data
I0424 00:29:49.304183  5292 db_lmdb.cpp:35] Opened lmdb fer2013_train_lmdb
I0424 00:29:49.304375  5292 net.cpp:84] Creating Layer data
I0424 00:29:49.304440  5292 net.cpp:380] data -> data
I0424 00:29:49.304527  5292 net.cpp:380] data -> label
I0424 00:29:49.304587  5292 data_transformer.cpp:25] Loading mean file from: fer2013_mean.binaryproto
I0424 00:29:49.311398  5292 data_layer.cpp:45] output data size: 100,1,48,48
I0424 00:29:49.343282  5292 net.cpp:122] Setting up data
I0424 00:29:49.343418  5292 net.cpp:129] Top shape: 100 1 48 48 (230400)
I0424 00:29:49.343489  5292 net.cpp:129] Top shape: 100 (100)
I0424 00:29:49.343549  5292 net.cpp:137] Memory required for data: 922000
I0424 00:29:49.343616  5292 layer_factory.hpp:77] Creating layer conv1
I0424 00:29:49.343693  5292 net.cpp:84] Creating Layer conv1
I0424 00:29:49.343755  5292 net.cpp:406] conv1 <- data
I0424 00:29:49.343824  5292 net.cpp:380] conv1 -> conv1
I0424 00:29:53.753712  5292 net.cpp:122] Setting up conv1
I0424 00:29:53.753959  5292 net.cpp:129] Top shape: 100 96 10 10 (960000)
I0424 00:29:53.753968  5292 net.cpp:137] Memory required for data: 4762000
I0424 00:29:53.754012  5292 layer_factory.hpp:77] Creating layer relu1
I0424 00:29:53.754026  5292 net.cpp:84] Creating Layer relu1
I0424 00:29:53.754032  5292 net.cpp:406] relu1 <- conv1
I0424 00:29:53.754040  5292 net.cpp:367] relu1 -> conv1 (in-place)
I0424 00:29:53.756809  5292 net.cpp:122] Setting up relu1
I0424 00:29:53.756918  5292 net.cpp:129] Top shape: 100 96 10 10 (960000)
I0424 00:29:53.756985  5292 net.cpp:137] Memory required for data: 8602000
I0424 00:29:53.757045  5292 layer_factory.hpp:77] Creating layer norm1
I0424 00:29:53.757114  5292 net.cpp:84] Creating Layer norm1
I0424 00:29:53.757185  5292 net.cpp:406] norm1 <- conv1
I0424 00:29:53.757241  5292 net.cpp:380] norm1 -> norm1
I0424 00:29:53.757549  5292 net.cpp:122] Setting up norm1
I0424 00:29:53.759271  5292 net.cpp:129] Top shape: 100 96 10 10 (960000)
I0424 00:29:53.759363  5292 net.cpp:137] Memory required for data: 12442000
I0424 00:29:53.759420  5292 layer_factory.hpp:77] Creating layer pool1
I0424 00:29:53.759474  5292 net.cpp:84] Creating Layer pool1
I0424 00:29:53.759521  5292 net.cpp:406] pool1 <- norm1
I0424 00:29:53.761210  5292 net.cpp:380] pool1 -> pool1
I0424 00:29:53.761345  5292 net.cpp:122] Setting up pool1
I0424 00:29:53.761402  5292 net.cpp:129] Top shape: 100 96 5 5 (240000)
I0424 00:29:53.761449  5292 net.cpp:137] Memory required for data: 13402000
I0424 00:29:53.761494  5292 layer_factory.hpp:77] Creating layer conv2
I0424 00:29:53.761548  5292 net.cpp:84] Creating Layer conv2
I0424 00:29:53.761595  5292 net.cpp:406] conv2 <- pool1
I0424 00:29:53.761643  5292 net.cpp:380] conv2 -> conv2
I0424 00:29:53.795063  5292 net.cpp:122] Setting up conv2
I0424 00:29:53.796325  5292 net.cpp:129] Top shape: 100 256 5 5 (640000)
I0424 00:29:53.796458  5292 net.cpp:137] Memory required for data: 15962000
I0424 00:29:53.796628  5292 layer_factory.hpp:77] Creating layer relu2
I0424 00:29:53.796694  5292 net.cpp:84] Creating Layer relu2
I0424 00:29:53.796753  5292 net.cpp:406] relu2 <- conv2
I0424 00:29:53.796825  5292 net.cpp:367] relu2 -> conv2 (in-place)
I0424 00:29:53.803467  5292 net.cpp:122] Setting up relu2
I0424 00:29:53.803587  5292 net.cpp:129] Top shape: 100 256 5 5 (640000)
I0424 00:29:53.807247  5292 net.cpp:137] Memory required for data: 18522000
I0424 00:29:53.807305  5292 layer_factory.hpp:77] Creating layer norm2
I0424 00:29:53.807366  5292 net.cpp:84] Creating Layer norm2
I0424 00:29:53.807413  5292 net.cpp:406] norm2 <- conv2
I0424 00:29:53.807479  5292 net.cpp:380] norm2 -> norm2
I0424 00:29:53.807883  5292 net.cpp:122] Setting up norm2
I0424 00:29:53.807961  5292 net.cpp:129] Top shape: 100 256 5 5 (640000)
I0424 00:29:53.808004  5292 net.cpp:137] Memory required for data: 21082000
I0424 00:29:53.808048  5292 layer_factory.hpp:77] Creating layer pool2
I0424 00:29:53.808099  5292 net.cpp:84] Creating Layer pool2
I0424 00:29:53.808142  5292 net.cpp:406] pool2 <- norm2
I0424 00:29:53.808192  5292 net.cpp:380] pool2 -> pool2
I0424 00:29:53.808280  5292 net.cpp:122] Setting up pool2
I0424 00:29:53.808341  5292 net.cpp:129] Top shape: 100 256 2 2 (102400)
I0424 00:29:53.808387  5292 net.cpp:137] Memory required for data: 21491600
I0424 00:29:53.808429  5292 layer_factory.hpp:77] Creating layer conv3
I0424 00:29:53.808481  5292 net.cpp:84] Creating Layer conv3
I0424 00:29:53.808526  5292 net.cpp:406] conv3 <- pool2
I0424 00:29:53.808573  5292 net.cpp:380] conv3 -> conv3
I0424 00:29:53.879902  5292 net.cpp:122] Setting up conv3
I0424 00:29:53.880064  5292 net.cpp:129] Top shape: 100 384 2 2 (153600)
I0424 00:29:53.880141  5292 net.cpp:137] Memory required for data: 22106000
I0424 00:29:53.880235  5292 layer_factory.hpp:77] Creating layer relu3
I0424 00:29:53.883268  5292 net.cpp:84] Creating Layer relu3
I0424 00:29:53.883345  5292 net.cpp:406] relu3 <- conv3
I0424 00:29:53.883409  5292 net.cpp:367] relu3 -> conv3 (in-place)
I0424 00:29:53.884012  5292 net.cpp:122] Setting up relu3
I0424 00:29:53.884109  5292 net.cpp:129] Top shape: 100 384 2 2 (153600)
I0424 00:29:53.884176  5292 net.cpp:137] Memory required for data: 22720400
I0424 00:29:53.884233  5292 layer_factory.hpp:77] Creating layer conv4
I0424 00:29:53.884337  5292 net.cpp:84] Creating Layer conv4
I0424 00:29:53.884388  5292 net.cpp:406] conv4 <- conv3
I0424 00:29:53.884438  5292 net.cpp:380] conv4 -> conv4
I0424 00:29:53.935649  5292 net.cpp:122] Setting up conv4
I0424 00:29:53.935853  5292 net.cpp:129] Top shape: 100 384 2 2 (153600)
I0424 00:29:53.935930  5292 net.cpp:137] Memory required for data: 23334800
I0424 00:29:53.936012  5292 layer_factory.hpp:77] Creating layer relu4
I0424 00:29:53.936075  5292 net.cpp:84] Creating Layer relu4
I0424 00:29:53.936132  5292 net.cpp:406] relu4 <- conv4
I0424 00:29:53.936229  5292 net.cpp:367] relu4 -> conv4 (in-place)
I0424 00:29:53.939790  5292 net.cpp:122] Setting up relu4
I0424 00:29:53.939899  5292 net.cpp:129] Top shape: 100 384 2 2 (153600)
I0424 00:29:53.943248  5292 net.cpp:137] Memory required for data: 23949200
I0424 00:29:53.943351  5292 layer_factory.hpp:77] Creating layer conv5
I0424 00:29:53.943410  5292 net.cpp:84] Creating Layer conv5
I0424 00:29:53.943459  5292 net.cpp:406] conv5 <- conv4
I0424 00:29:53.943518  5292 net.cpp:380] conv5 -> conv5
I0424 00:29:53.983556  5292 net.cpp:122] Setting up conv5
I0424 00:29:53.987263  5292 net.cpp:129] Top shape: 100 256 2 2 (102400)
I0424 00:29:53.987383  5292 net.cpp:137] Memory required for data: 24358800
I0424 00:29:53.987483  5292 layer_factory.hpp:77] Creating layer relu5
I0424 00:29:53.987565  5292 net.cpp:84] Creating Layer relu5
I0424 00:29:53.987625  5292 net.cpp:406] relu5 <- conv5
I0424 00:29:53.987685  5292 net.cpp:367] relu5 -> conv5 (in-place)
I0424 00:29:53.991091  5292 net.cpp:122] Setting up relu5
I0424 00:29:53.991200  5292 net.cpp:129] Top shape: 100 256 2 2 (102400)
I0424 00:29:53.991348  5292 net.cpp:137] Memory required for data: 24768400
I0424 00:29:53.991405  5292 layer_factory.hpp:77] Creating layer pool5
I0424 00:29:53.991515  5292 net.cpp:84] Creating Layer pool5
I0424 00:29:53.991600  5292 net.cpp:406] pool5 <- conv5
I0424 00:29:53.991652  5292 net.cpp:380] pool5 -> pool5
I0424 00:29:53.991750  5292 net.cpp:122] Setting up pool5
I0424 00:29:53.991802  5292 net.cpp:129] Top shape: 100 256 1 1 (25600)
I0424 00:29:53.991847  5292 net.cpp:137] Memory required for data: 24870800
I0424 00:29:53.991888  5292 layer_factory.hpp:77] Creating layer fc6
I0424 00:29:53.991941  5292 net.cpp:84] Creating Layer fc6
I0424 00:29:53.991987  5292 net.cpp:406] fc6 <- pool5
I0424 00:29:53.992033  5292 net.cpp:380] fc6 -> fc6
I0424 00:29:54.065048  5292 net.cpp:122] Setting up fc6
I0424 00:29:54.074762  5292 net.cpp:129] Top shape: 100 4096 (409600)
I0424 00:29:54.074872  5292 net.cpp:137] Memory required for data: 26509200
I0424 00:29:54.074951  5292 layer_factory.hpp:77] Creating layer relu6
I0424 00:29:54.075034  5292 net.cpp:84] Creating Layer relu6
I0424 00:29:54.075119  5292 net.cpp:406] relu6 <- fc6
I0424 00:29:54.075201  5292 net.cpp:367] relu6 -> fc6 (in-place)
I0424 00:29:54.079394  5292 net.cpp:122] Setting up relu6
I0424 00:29:54.079519  5292 net.cpp:129] Top shape: 100 4096 (409600)
I0424 00:29:54.079574  5292 net.cpp:137] Memory required for data: 28147600
I0424 00:29:54.079636  5292 layer_factory.hpp:77] Creating layer drop6
I0424 00:29:54.079749  5292 net.cpp:84] Creating Layer drop6
I0424 00:29:54.079799  5292 net.cpp:406] drop6 <- fc6
I0424 00:29:54.079849  5292 net.cpp:367] drop6 -> fc6 (in-place)
I0424 00:29:54.079995  5292 net.cpp:122] Setting up drop6
I0424 00:29:54.080068  5292 net.cpp:129] Top shape: 100 4096 (409600)
I0424 00:29:54.080148  5292 net.cpp:137] Memory required for data: 29786000
I0424 00:29:54.080198  5292 layer_factory.hpp:77] Creating layer fc7
I0424 00:29:54.080284  5292 net.cpp:84] Creating Layer fc7
I0424 00:29:54.080340  5292 net.cpp:406] fc7 <- fc6
I0424 00:29:54.080420  5292 net.cpp:380] fc7 -> fc7
I0424 00:29:55.177500  5292 net.cpp:122] Setting up fc7
I0424 00:29:55.195250  5292 net.cpp:129] Top shape: 100 4096 (409600)
I0424 00:29:55.195372  5292 net.cpp:137] Memory required for data: 31424400
I0424 00:29:55.195443  5292 layer_factory.hpp:77] Creating layer relu7
I0424 00:29:55.195510  5292 net.cpp:84] Creating Layer relu7
I0424 00:29:55.195631  5292 net.cpp:406] relu7 <- fc7
I0424 00:29:55.195696  5292 net.cpp:367] relu7 -> fc7 (in-place)
I0424 00:29:55.196089  5292 net.cpp:122] Setting up relu7
I0424 00:29:55.199251  5292 net.cpp:129] Top shape: 100 4096 (409600)
I0424 00:29:55.199368  5292 net.cpp:137] Memory required for data: 33062800
I0424 00:29:55.199424  5292 layer_factory.hpp:77] Creating layer drop7
I0424 00:29:55.199483  5292 net.cpp:84] Creating Layer drop7
I0424 00:29:55.199529  5292 net.cpp:406] drop7 <- fc7
I0424 00:29:55.199609  5292 net.cpp:367] drop7 -> fc7 (in-place)
I0424 00:29:55.199707  5292 net.cpp:122] Setting up drop7
I0424 00:29:55.199776  5292 net.cpp:129] Top shape: 100 4096 (409600)
I0424 00:29:55.199820  5292 net.cpp:137] Memory required for data: 34701200
I0424 00:29:55.199864  5292 layer_factory.hpp:77] Creating layer fc8
I0424 00:29:55.199928  5292 net.cpp:84] Creating Layer fc8
I0424 00:29:55.199975  5292 net.cpp:406] fc8 <- fc7
I0424 00:29:55.200021  5292 net.cpp:380] fc8 -> fc8
I0424 00:29:55.480866  5292 net.cpp:122] Setting up fc8
I0424 00:29:55.491375  5292 net.cpp:129] Top shape: 100 1000 (100000)
I0424 00:29:55.491484  5292 net.cpp:137] Memory required for data: 35101200
I0424 00:29:55.491554  5292 layer_factory.hpp:77] Creating layer loss
I0424 00:29:55.491623  5292 net.cpp:84] Creating Layer loss
I0424 00:29:55.491683  5292 net.cpp:406] loss <- fc8
I0424 00:29:55.491747  5292 net.cpp:406] loss <- label
I0424 00:29:55.491811  5292 net.cpp:380] loss -> loss
I0424 00:29:55.491889  5292 layer_factory.hpp:77] Creating layer loss
…
I0424 00:29:55.556305  5292 solver.cpp:190] Creating test net (#0) specified by net file: AlexNet_gamma0.95.prototxt
I0424 00:29:55.556372  5292 net.cpp:294] The NetState phase (1) differed from the phase (0) specified by a rule in layer data
I0424 00:29:55.556563  5292 net.cpp:51] Initializing net from parameters: 
name: "AlexNet"
state {
  phase: TEST
}
layer {
  name: "data"
  type: "Data"
  top: "data"
  top: "label"
  include {
    phase: TEST
  }
  transform_param {
    mirror: false
    crop_size: 48
    mean_file: "fer2013_mean.binaryproto"
  }
  data_param {
    source: "fer2013_train_lmdb"
    batch_size: 50
    backend: LMDB
  }
}
layer {
  name: "conv1"
  type: "Convolution"
  bottom: "data"
  top: "conv1"
  param {
    lr_mult: 1
    decay_mult: 1
  }
  param {
    lr_mult: 2
    decay_mult: 0
  }
  convolution_param {
    num_output: 96
    kernel_size: 11
    stride: 4
    weight_filler {
      type: "gaussian"
      std: 0.01
    }
    bias_filler {
      type: "constant"
      value: 0
    }
  }
}
layer {
  name: "relu1"
  type: "ReLU"
  bottom: "conv1"
  top: "conv1"
}
layer {
  name: "norm1"
  type: "LRN"
  bottom: "conv1"
  top: "norm1"
  lrn_param {
    local_size: 5
    alpha: 0.0001
    beta: 0.75
  }
}
layer {
  name: "pool1"
  type: "Pooling"
  bottom: "norm1"
  top: "pool1"
  pooling_param {
    pool: MAX
    kernel_size: 3
    stride: 2
  }
}
layer {
  name: "conv2"
  type: "Convolution"
  bottom: "pool1"
  top: "conv2"
  param {
    lr_mult: 1
    decay_mult: 1
  }
  param {
    lr_mult: 2
    decay_mult: 0
  }
  convolution_param {
    num_output: 256
    pad: 2
    kernel_size: 5
    group: 2
    weight_filler {
      type: "gaussian"
      std: 0.01
    }
    bias_filler {
      type: "constant"
      value: 0.1
    }
  }
}
layer {
  name: "relu2"
  type: "ReLU"
  bottom: "conv2"
  top: "conv2"
}
layer {
  name: "norm2"
  type: "LRN"
  bottom: "conv2"
  top: "norm2"
  lrn_param {
    local_size: 5
    alpha: 0.0001
    beta: 0.75
  }
}
layer {
  name: "pool2"
  type: "Pooling"
  bottom: "norm2"
  top: "pool2"
  pooling_param {
    pool: MAX
    kernel_size: 3
    stride: 2
  }
}
layer {
  name: "conv3"
  type: "Convolution"
  bottom: "pool2"
  top: "conv3"
  param {
    lr_mult: 1
    decay_mult: 1
  }
  param {
    lr_mult: 2
    decay_mult: 0
  }
  convolution_param {
    num_output: 384
    pad: 1
    kernel_size: 3
    weight_filler {
      type: "gaussian"
      std: 0.01
    }
    bias_filler {
      type: "constant"
      value: 0
    }
  }
}
layer {
  name: "relu3"
  type: "ReLU"
  bottom: "conv3"
  top: "conv3"
}
layer {
  name: "conv4"
  type: "Convolution"
  bottom: "conv3"
  top: "conv4"
  param {
    lr_mult: 1
    decay_mult: 1
  }
  param {
    lr_mult: 2
    decay_mult: 0
  }
  convolution_param {
    num_output: 384
    pad: 1
    kernel_size: 3
    group: 2
    weight_filler {
      type: "gaussian"
      std: 0.01
    }
    bias_filler {
      type: "constant"
      value: 0.1
    }
  }
}
layer {
  name: "relu4"
  type: "ReLU"
  bottom: "conv4"
  top: "conv4"
}
layer {
  name: "conv5"
  type: "Convolution"
  bottom: "conv4"
  top: "conv5"
  param {
    lr_mult: 1
    decay_mult: 1
  }
  param {
    lr_mult: 2
    decay_mult: 0
  }
  convolution_param {
    num_output: 256
    pad: 1
    kernel_size: 3
    group: 2
    weight_filler {
      type: "gaussian"
      std: 0.01
    }
    bias_filler {
      type: "constant"
      value: 0.1
    }
  }
}
layer {
  name: "relu5"
  type: "ReLU"
  bottom: "conv5"
  top: "conv5"
}
layer {
  name: "pool5"
  type: "Pooling"
  bottom: "conv5"
  top: "pool5"
  pooling_param {
    pool: MAX
    kernel_size: 3
    stride: 2
  }
}
layer {
  name: "fc6"
  type: "InnerProduct"
  bottom: "pool5"
  top: "fc6"
  param {
    lr_mult: 1
    decay_mult: 1
  }
  param {
    lr_mult: 2
    decay_mult: 0
  }
  inner_product_param {
    num_output: 4096
    weight_filler {
      type: "gaussian"
      std: 0.005
    }
    bias_filler {
      type: "constant"
      value: 0.1
    }
  }
}
layer {
  name: "relu6"
  type: "ReLU"
  bottom: "fc6"
  top: "fc6"
}
layer {
  name: "drop6"
  type: "Dropout"
  bottom: "fc6"
  top: "fc6"
  dropout_param {
    dropout_ratio: 0.5
  }
}
layer {
  name: "fc7"
  type: "InnerProduct"
  bottom: "fc6"
  top: "fc7"
  param {
    lr_mult: 1
    decay_mult: 1
  }
  param {
    lr_mult: 2
    decay_mult: 0
  }
  inner_product_param {
    num_output: 4096
    weight_filler {
      type: "gaussian"
      std: 0.005
    }
    bias_filler {
      type: "constant"
      value: 0.1
    }
  }
}
layer {
  name: "relu7"
  type: "ReLU"
  bottom: "fc7"
  top: "fc7"
}
layer {
  name: "drop7"
  type: "Dropout"
  bottom: "fc7"
  top: "fc7"
  dropout_param {
    dropout_ratio: 0.5
  }
}
layer {
  name: "fc8"
  type: "InnerProduct"
  bottom: "fc7"
  top: "fc8"
  param {
    lr_mult: 1
    decay_mult: 1
  }
  param {
    lr_mult: 2
    decay_mult: 0
  }
  inner_product_param {
    num_output: 1000
    weight_filler {
      type: "gaussian"
      std: 0.01
    }
    bias_filler {
      type: "constant"
      value: 0
    }
  }
}
layer {
  name: "accuracy"
  type: "Accuracy"
  bottom: "fc8"
  bottom: "label"
  top: "accuracy"
  include {
    phase: TEST
  }
}
layer {
  name: "loss"
  type: "SoftmaxWithLoss"
  bottom: "fc8"
  bottom: "label"
  top: "loss"
}
I0424 00:29:55.556713  5292 layer_factory.hpp:77] Creating layer data
I0424 00:29:55.588294  5292 db_lmdb.cpp:35] Opened lmdb fer2013_train_lmdb
I0424 00:29:55.611105  5292 net.cpp:84] Creating Layer data
I0424 00:29:55.611124  5292 net.cpp:380] data -> data
I0424 00:29:55.611155  5292 net.cpp:380] data -> label
I0424 00:29:55.611166  5292 data_transformer.cpp:25] Loading mean file from: fer2013_mean.binaryproto
I0424 00:29:55.627480  5292 data_layer.cpp:45] output data size: 50,1,48,48
I0424 00:29:55.632637  5292 net.cpp:122] Setting up data
I0424 00:29:55.632726  5292 net.cpp:129] Top shape: 50 1 48 48 (115200)
I0424 00:29:55.632797  5292 net.cpp:129] Top shape: 50 (50)
I0424 00:29:55.632854  5292 net.cpp:137] Memory required for data: 461000
I0424 00:29:55.632915  5292 layer_factory.hpp:77] Creating layer label_data_1_split
I0424 00:29:55.632985  5292 net.cpp:84] Creating Layer label_data_1_split
I0424 00:29:55.633042  5292 net.cpp:406] label_data_1_split <- label
I0424 00:29:55.633116  5292 net.cpp:380] label_data_1_split -> label_data_1_split_0
I0424 00:29:55.633185  5292 net.cpp:380] label_data_1_split -> label_data_1_split_1
I0424 00:29:55.633298  5292 net.cpp:122] Setting up label_data_1_split
I0424 00:29:55.633378  5292 net.cpp:129] Top shape: 50 (50)
I0424 00:29:55.633435  5292 net.cpp:129] Top shape: 50 (50)
I0424 00:29:55.633491  5292 net.cpp:137] Memory required for data: 461400
I0424 00:29:55.633551  5292 layer_factory.hpp:77] Creating layer conv1
I0424 00:29:55.633625  5292 net.cpp:84] Creating Layer conv1
I0424 00:29:55.633687  5292 net.cpp:406] conv1 <- data
I0424 00:29:55.633775  5292 net.cpp:380] conv1 -> conv1
I0424 00:29:55.643730  5292 net.cpp:122] Setting up conv1
I0424 00:29:55.643821  5292 net.cpp:129] Top shape: 50 96 10 10 (480000)
I0424 00:29:55.643872  5292 net.cpp:137] Memory required for data: 2381400
I0424 00:29:55.643925  5292 layer_factory.hpp:77] Creating layer relu1
I0424 00:29:55.643980  5292 net.cpp:84] Creating Layer relu1
I0424 00:29:55.644044  5292 net.cpp:406] relu1 <- conv1
I0424 00:29:55.645153  5292 net.cpp:367] relu1 -> conv1 (in-place)
I0424 00:29:55.760671  5292 net.cpp:122] Setting up relu1
I0424 00:29:55.760687  5292 net.cpp:129] Top shape: 50 96 10 10 (480000)
I0424 00:29:55.760691  5292 net.cpp:137] Memory required for data: 4301400
I0424 00:29:55.760710  5292 layer_factory.hpp:77] Creating layer norm1
I0424 00:29:55.760735  5292 net.cpp:84] Creating Layer norm1
I0424 00:29:55.760738  5292 net.cpp:406] norm1 <- conv1
I0424 00:29:55.760746  5292 net.cpp:380] norm1 -> norm1
I0424 00:29:55.761435  5292 net.cpp:122] Setting up norm1
I0424 00:29:55.761447  5292 net.cpp:129] Top shape: 50 96 10 10 (480000)
I0424 00:29:55.761466  5292 net.cpp:137] Memory required for data: 6221400
I0424 00:29:55.761471  5292 layer_factory.hpp:77] Creating layer pool1
I0424 00:29:55.761478  5292 net.cpp:84] Creating Layer pool1
I0424 00:29:55.761482  5292 net.cpp:406] pool1 <- norm1
I0424 00:29:55.761507  5292 net.cpp:380] pool1 -> pool1
I0424 00:29:55.761749  5292 net.cpp:122] Setting up pool1
I0424 00:29:55.761809  5292 net.cpp:129] Top shape: 50 96 5 5 (120000)
I0424 00:29:55.761853  5292 net.cpp:137] Memory required for data: 6701400
I0424 00:29:55.761868  5292 layer_factory.hpp:77] Creating layer conv2
I0424 00:29:55.761916  5292 net.cpp:84] Creating Layer conv2
I0424 00:29:55.762001  5292 net.cpp:406] conv2 <- pool1
I0424 00:29:55.762030  5292 net.cpp:380] conv2 -> conv2
I0424 00:29:55.925107  5292 net.cpp:122] Setting up conv2
I0424 00:29:55.926219  5292 net.cpp:129] Top shape: 50 256 5 5 (320000)
I0424 00:29:55.926355  5292 net.cpp:137] Memory required for data: 7981400
I0424 00:29:55.926466  5292 layer_factory.hpp:77] Creating layer relu2
I0424 00:29:55.926548  5292 net.cpp:84] Creating Layer relu2
I0424 00:29:55.926607  5292 net.cpp:406] relu2 <- conv2
I0424 00:29:55.926671  5292 net.cpp:367] relu2 -> conv2 (in-place)
I0424 00:29:55.927402  5292 net.cpp:122] Setting up relu2
I0424 00:29:55.927621  5292 net.cpp:129] Top shape: 50 256 5 5 (320000)
I0424 00:29:55.927685  5292 net.cpp:137] Memory required for data: 9261400
I0424 00:29:55.927745  5292 layer_factory.hpp:77] Creating layer norm2
I0424 00:29:55.927825  5292 net.cpp:84] Creating Layer norm2
I0424 00:29:55.927916  5292 net.cpp:406] norm2 <- conv2
I0424 00:29:55.928011  5292 net.cpp:380] norm2 -> norm2
I0424 00:29:55.928752  5292 net.cpp:122] Setting up norm2
I0424 00:29:55.928869  5292 net.cpp:129] Top shape: 50 256 5 5 (320000)
I0424 00:29:55.928933  5292 net.cpp:137] Memory required for data: 10541400
I0424 00:29:55.929049  5292 layer_factory.hpp:77] Creating layer pool2
I0424 00:29:55.929126  5292 net.cpp:84] Creating Layer pool2
I0424 00:29:55.929174  5292 net.cpp:406] pool2 <- norm2
I0424 00:29:55.929226  5292 net.cpp:380] pool2 -> pool2
I0424 00:29:55.929342  5292 net.cpp:122] Setting up pool2
I0424 00:29:55.929399  5292 net.cpp:129] Top shape: 50 256 2 2 (51200)
I0424 00:29:55.929446  5292 net.cpp:137] Memory required for data: 10746200
I0424 00:29:55.929492  5292 layer_factory.hpp:77] Creating layer conv3
I0424 00:29:55.929553  5292 net.cpp:84] Creating Layer conv3
I0424 00:29:55.929600  5292 net.cpp:406] conv3 <- pool2
I0424 00:29:55.929653  5292 net.cpp:380] conv3 -> conv3
I0424 00:29:56.216951  5292 net.cpp:122] Setting up conv3
I0424 00:29:56.217178  5292 net.cpp:129] Top shape: 50 384 2 2 (76800)
I0424 00:29:56.217272  5292 net.cpp:137] Memory required for data: 11053400
I0424 00:29:56.217433  5292 layer_factory.hpp:77] Creating layer relu3
I0424 00:29:56.217510  5292 net.cpp:84] Creating Layer relu3
I0424 00:29:56.217573  5292 net.cpp:406] relu3 <- conv3
I0424 00:29:56.217660  5292 net.cpp:367] relu3 -> conv3 (in-place)
I0424 00:29:56.218333  5292 net.cpp:122] Setting up relu3
I0424 00:29:56.218405  5292 net.cpp:129] Top shape: 50 384 2 2 (76800)
I0424 00:29:56.218461  5292 net.cpp:137] Memory required for data: 11360600
I0424 00:29:56.218528  5292 layer_factory.hpp:77] Creating layer conv4
I0424 00:29:56.218605  5292 net.cpp:84] Creating Layer conv4
I0424 00:29:56.218685  5292 net.cpp:406] conv4 <- conv3
I0424 00:29:56.218785  5292 net.cpp:380] conv4 -> conv4
I0424 00:29:56.287375  5292 net.cpp:122] Setting up conv4
I0424 00:29:56.287526  5292 net.cpp:129] Top shape: 50 384 2 2 (76800)
I0424 00:29:56.287605  5292 net.cpp:137] Memory required for data: 11667800
I0424 00:29:56.287693  5292 layer_factory.hpp:77] Creating layer relu4
I0424 00:29:56.287762  5292 net.cpp:84] Creating Layer relu4
I0424 00:29:56.287819  5292 net.cpp:406] relu4 <- conv4
I0424 00:29:56.287883  5292 net.cpp:367] relu4 -> conv4 (in-place)
I0424 00:29:56.291466  5292 net.cpp:122] Setting up relu4
I0424 00:29:56.291625  5292 net.cpp:129] Top shape: 50 384 2 2 (76800)
I0424 00:29:56.291632  5292 net.cpp:137] Memory required for data: 11975000
I0424 00:29:56.291636  5292 layer_factory.hpp:77] Creating layer conv5
I0424 00:29:56.291651  5292 net.cpp:84] Creating Layer conv5
I0424 00:29:56.291654  5292 net.cpp:406] conv5 <- conv4
I0424 00:29:56.291663  5292 net.cpp:380] conv5 -> conv5
I0424 00:29:56.339689  5292 net.cpp:122] Setting up conv5
I0424 00:29:56.339874  5292 net.cpp:129] Top shape: 50 256 2 2 (51200)
I0424 00:29:56.339973  5292 net.cpp:137] Memory required for data: 12179800
I0424 00:29:56.340054  5292 layer_factory.hpp:77] Creating layer relu5
I0424 00:29:56.340140  5292 net.cpp:84] Creating Layer relu5
I0424 00:29:56.340219  5292 net.cpp:406] relu5 <- conv5
I0424 00:29:56.340307  5292 net.cpp:367] relu5 -> conv5 (in-place)
I0424 00:29:56.340677  5292 net.cpp:122] Setting up relu5
I0424 00:29:56.342337  5292 net.cpp:129] Top shape: 50 256 2 2 (51200)
I0424 00:29:56.342468  5292 net.cpp:137] Memory required for data: 12384600
I0424 00:29:56.342551  5292 layer_factory.hpp:77] Creating layer pool5
I0424 00:29:56.342650  5292 net.cpp:84] Creating Layer pool5
I0424 00:29:56.342736  5292 net.cpp:406] pool5 <- conv5
I0424 00:29:56.342855  5292 net.cpp:380] pool5 -> pool5
I0424 00:29:56.342990  5292 net.cpp:122] Setting up pool5
I0424 00:29:56.343080  5292 net.cpp:129] Top shape: 50 256 1 1 (12800)
I0424 00:29:56.343189  5292 net.cpp:137] Memory required for data: 12435800
I0424 00:29:56.343260  5292 layer_factory.hpp:77] Creating layer fc6
I0424 00:29:56.343345  5292 net.cpp:84] Creating Layer fc6
I0424 00:29:56.343397  5292 net.cpp:406] fc6 <- pool5
I0424 00:29:56.343452  5292 net.cpp:380] fc6 -> fc6
I0424 00:29:56.419862  5292 net.cpp:122] Setting up fc6
I0424 00:29:56.428848  5292 net.cpp:129] Top shape: 50 4096 (204800)
I0424 00:29:56.429005  5292 net.cpp:137] Memory required for data: 13255000
I0424 00:29:56.429108  5292 layer_factory.hpp:77] Creating layer relu6
I0424 00:29:56.429175  5292 net.cpp:84] Creating Layer relu6
I0424 00:29:56.429231  5292 net.cpp:406] relu6 <- fc6
I0424 00:29:56.429296  5292 net.cpp:367] relu6 -> fc6 (in-place)
I0424 00:29:56.429970  5292 net.cpp:122] Setting up relu6
I0424 00:29:56.435245  5292 net.cpp:129] Top shape: 50 4096 (204800)
I0424 00:29:56.435336  5292 net.cpp:137] Memory required for data: 14074200
I0424 00:29:56.435396  5292 layer_factory.hpp:77] Creating layer drop6
I0424 00:29:56.435472  5292 net.cpp:84] Creating Layer drop6
I0424 00:29:56.435531  5292 net.cpp:406] drop6 <- fc6
I0424 00:29:56.435592  5292 net.cpp:367] drop6 -> fc6 (in-place)
I0424 00:29:56.435690  5292 net.cpp:122] Setting up drop6
I0424 00:29:56.435745  5292 net.cpp:129] Top shape: 50 4096 (204800)
I0424 00:29:56.435791  5292 net.cpp:137] Memory required for data: 14893400
I0424 00:29:56.435834  5292 layer_factory.hpp:77] Creating layer fc7
I0424 00:29:56.435886  5292 net.cpp:84] Creating Layer fc7
I0424 00:29:56.435932  5292 net.cpp:406] fc7 <- fc6
I0424 00:29:56.435983  5292 net.cpp:380] fc7 -> fc7
I0424 00:29:57.403048  5292 net.cpp:122] Setting up fc7
I0424 00:29:57.419098  5292 net.cpp:129] Top shape: 50 4096 (204800)
I0424 00:29:57.419198  5292 net.cpp:137] Memory required for data: 15712600
I0424 00:29:57.419289  5292 layer_factory.hpp:77] Creating layer relu7
I0424 00:29:57.419369  5292 net.cpp:84] Creating Layer relu7
I0424 00:29:57.419468  5292 net.cpp:406] relu7 <- fc7
I0424 00:29:57.419534  5292 net.cpp:367] relu7 -> fc7 (in-place)
I0424 00:29:57.420051  5292 net.cpp:122] Setting up relu7
I0424 00:29:57.425225  5292 net.cpp:129] Top shape: 50 4096 (204800)
I0424 00:29:57.425366  5292 net.cpp:137] Memory required for data: 16531800
I0424 00:29:57.425451  5292 layer_factory.hpp:77] Creating layer drop7
I0424 00:29:57.425550  5292 net.cpp:84] Creating Layer drop7
I0424 00:29:57.425632  5292 net.cpp:406] drop7 <- fc7
I0424 00:29:57.425684  5292 net.cpp:367] drop7 -> fc7 (in-place)
I0424 00:29:57.425770  5292 net.cpp:122] Setting up drop7
I0424 00:29:57.425830  5292 net.cpp:129] Top shape: 50 4096 (204800)
I0424 00:29:57.425875  5292 net.cpp:137] Memory required for data: 17351000
I0424 00:29:57.425921  5292 layer_factory.hpp:77] Creating layer fc8
I0424 00:29:57.426003  5292 net.cpp:84] Creating Layer fc8
I0424 00:29:57.426291  5292 net.cpp:406] fc8 <- fc7
I0424 00:29:57.426375  5292 net.cpp:380] fc8 -> fc8
I0424 00:29:57.667124  5292 net.cpp:122] Setting up fc8
I0424 00:29:57.681464  5292 net.cpp:129] Top shape: 50 1000 (50000)
I0424 00:29:57.681576  5292 net.cpp:137] Memory required for data: 17551000
I0424 00:29:57.681653  5292 layer_factory.hpp:77] Creating layer fc8_fc8_0_split
I0424 00:29:57.681735  5292 net.cpp:84] Creating Layer fc8_fc8_0_split
I0424 00:29:57.681807  5292 net.cpp:406] fc8_fc8_0_split <- fc8
I0424 00:29:57.681874  5292 net.cpp:380] fc8_fc8_0_split -> fc8_fc8_0_split_0
I0424 00:29:57.681948  5292 net.cpp:380] fc8_fc8_0_split -> fc8_fc8_0_split_1
I0424 00:29:57.682112  5292 net.cpp:122] Setting up fc8_fc8_0_split
I0424 00:29:57.682176  5292 net.cpp:129] Top shape: 50 1000 (50000)
I0424 00:29:57.682238  5292 net.cpp:129] Top shape: 50 1000 (50000)
I0424 00:29:57.682293  5292 net.cpp:137] Memory required for data: 17951000
I0424 00:29:57.682365  5292 layer_factory.hpp:77] Creating layer accuracy
I0424 00:29:57.682435  5292 net.cpp:84] Creating Layer accuracy
I0424 00:29:57.682493  5292 net.cpp:406] accuracy <- fc8_fc8_0_split_0
I0424 00:29:57.682566  5292 net.cpp:406] accuracy <- label_data_1_split_0
I0424 00:29:57.682633  5292 net.cpp:380] accuracy -> accuracy
…
