…
I0424 21:55:08.527889  8805 net.cpp:294] The NetState phase (0) differed from the phase (1) specified by a rule in layer mnist
I0424 21:55:08.529521  8805 net.cpp:294] The NetState phase (0) differed from the phase (1) specified by a rule in layer accuracy
I0424 21:55:08.529695  8805 net.cpp:51] Initializing net from parameters: 
name: "LeNet"
state {
  phase: TRAIN
  level: 0
  stage: ""
}
layer {
  name: "mnist"
  type: "Data"
  top: "data"
  top: "label"
  include {
    phase: TRAIN
  }
  transform_param {
    scale: 0.00390625
  }
  data_param {
    source: "fer2013_train_lmdb"
    batch_size: 64
    backend: LMDB
  }
}
layer {
  name: "conv1"
  type: "Convolution"
  bottom: "data"
  top: "conv1"
  param {
    lr_mult: 1
  }
  param {
    lr_mult: 2
  }
  convolution_param {
    num_output: 20
    kernel_size: 5
    stride: 1
    weight_filler {
      type: "xavier"
    }
    bias_filler {
      type: "constant"
    }
  }
}
layer {
  name: "pool1"
  type: "Pooling"
  bottom: "conv1"
  top: "pool1"
  pooling_param {
    pool: MAX
    kernel_size: 2
    stride: 2
  }
}
layer {
  name: "conv2"
  type: "Convolution"
  bottom: "pool1"
  top: "conv2"
  param {
    lr_mult: 1
  }
  param {
    lr_mult: 2
  }
  convolution_param {
    num_output: 50
    kernel_size: 5
    stride: 1
    weight_filler {
      type: "xavier"
    }
    bias_filler {
      type: "constant"
    }
  }
}
layer {
  name: "pool2"
  type: "Pooling"
  bottom: "conv2"
  top: "pool2"
  pooling_param {
    pool: MAX
    kernel_size: 2
    stride: 2
  }
}
layer {
  name: "ip1"
  type: "InnerProduct"
  bottom: "pool2"
  top: "ip1"
  param {
    lr_mult: 1
  }
  param {
    lr_mult: 2
  }
  inner_product_param {
    num_output: 500
    weight_filler {
      type: "xavier"
    }
    bias_filler {
      type: "constant"
    }
  }
}
layer {
  name: "relu1"
  type: "ReLU"
  bottom: "ip1"
  top: "ip1"
}
layer {
  name: "ip2"
  type: "InnerProduct"
  bottom: "ip1"
  top: "ip2"
  param {
    lr_mult: 1
  }
  param {
    lr_mult: 2
  }
  inner_product_param {
    num_output: 7
    weight_filler {
      type: "xavier"
    }
    bias_filler {
      type: "constant"
    }
  }
}
layer {
  name: "loss"
  type: "SoftmaxWithLoss"
  bottom: "ip2"
  bottom: "label"
  top: "loss"
}
I0424 21:55:08.532543  8805 layer_factory.hpp:77] Creating layer mnist
I0424 21:55:08.532748  8805 db_lmdb.cpp:35] Opened lmdb fer2013_train_lmdb
I0424 21:55:08.532847  8805 net.cpp:84] Creating Layer mnist
I0424 21:55:08.532923  8805 net.cpp:380] mnist -> data
I0424 21:55:08.533000  8805 net.cpp:380] mnist -> label
I0424 21:55:08.533910  8805 data_layer.cpp:45] output data size: 64,1,48,48
I0424 21:55:08.557024  8805 net.cpp:122] Setting up mnist
I0424 21:55:08.557124  8805 net.cpp:129] Top shape: 64 1 48 48 (147456)
I0424 21:55:08.557176  8805 net.cpp:129] Top shape: 64 (64)
I0424 21:55:08.557236  8805 net.cpp:137] Memory required for data: 590080
I0424 21:55:08.557287  8805 layer_factory.hpp:77] Creating layer conv1
I0424 21:55:08.557374  8805 net.cpp:84] Creating Layer conv1
I0424 21:55:08.557431  8805 net.cpp:406] conv1 <- data
I0424 21:55:08.557483  8805 net.cpp:380] conv1 -> conv1
I0424 21:55:09.880616  8805 net.cpp:122] Setting up conv1
I0424 21:55:09.881079  8805 net.cpp:129] Top shape: 64 20 44 44 (2478080)
I0424 21:55:09.881150  8805 net.cpp:137] Memory required for data: 10502400
I0424 21:55:09.881222  8805 layer_factory.hpp:77] Creating layer pool1
I0424 21:55:09.881340  8805 net.cpp:84] Creating Layer pool1
I0424 21:55:09.881395  8805 net.cpp:406] pool1 <- conv1
I0424 21:55:09.881448  8805 net.cpp:380] pool1 -> pool1
I0424 21:55:09.881572  8805 net.cpp:122] Setting up pool1
I0424 21:55:09.881639  8805 net.cpp:129] Top shape: 64 20 22 22 (619520)
I0424 21:55:09.881733  8805 net.cpp:137] Memory required for data: 12980480
I0424 21:55:09.881783  8805 layer_factory.hpp:77] Creating layer conv2
I0424 21:55:09.881831  8805 net.cpp:84] Creating Layer conv2
I0424 21:55:09.881870  8805 net.cpp:406] conv2 <- pool1
I0424 21:55:09.881911  8805 net.cpp:380] conv2 -> conv2
I0424 21:55:09.888494  8805 net.cpp:122] Setting up conv2
I0424 21:55:09.888576  8805 net.cpp:129] Top shape: 64 50 18 18 (1036800)
I0424 21:55:09.888864  8805 net.cpp:137] Memory required for data: 17127680
I0424 21:55:09.888947  8805 layer_factory.hpp:77] Creating layer pool2
I0424 21:55:09.888994  8805 net.cpp:84] Creating Layer pool2
I0424 21:55:09.889035  8805 net.cpp:406] pool2 <- conv2
I0424 21:55:09.889077  8805 net.cpp:380] pool2 -> pool2
I0424 21:55:09.889169  8805 net.cpp:122] Setting up pool2
I0424 21:55:09.889261  8805 net.cpp:129] Top shape: 64 50 9 9 (259200)
I0424 21:55:09.889304  8805 net.cpp:137] Memory required for data: 18164480
I0424 21:55:09.889358  8805 layer_factory.hpp:77] Creating layer ip1
I0424 21:55:09.889401  8805 net.cpp:84] Creating Layer ip1
I0424 21:55:09.889439  8805 net.cpp:406] ip1 <- pool2
I0424 21:55:09.889480  8805 net.cpp:380] ip1 -> ip1
I0424 21:55:09.915741  8805 net.cpp:122] Setting up ip1
I0424 21:55:09.916514  8805 net.cpp:129] Top shape: 64 500 (32000)
I0424 21:55:09.916607  8805 net.cpp:137] Memory required for data: 18292480
I0424 21:55:09.916669  8805 layer_factory.hpp:77] Creating layer relu1
I0424 21:55:09.916728  8805 net.cpp:84] Creating Layer relu1
I0424 21:55:09.916779  8805 net.cpp:406] relu1 <- ip1
I0424 21:55:09.916836  8805 net.cpp:367] relu1 -> ip1 (in-place)
I0424 21:55:09.919339  8805 net.cpp:122] Setting up relu1
I0424 21:55:09.919423  8805 net.cpp:129] Top shape: 64 500 (32000)
I0424 21:55:09.919468  8805 net.cpp:137] Memory required for data: 18420480
I0424 21:55:09.919509  8805 layer_factory.hpp:77] Creating layer ip2
I0424 21:55:09.919556  8805 net.cpp:84] Creating Layer ip2
I0424 21:55:09.919600  8805 net.cpp:406] ip2 <- ip1
I0424 21:55:09.919646  8805 net.cpp:380] ip2 -> ip2
I0424 21:55:09.919833  8805 net.cpp:122] Setting up ip2
I0424 21:55:09.919898  8805 net.cpp:129] Top shape: 64 7 (448)
I0424 21:55:09.919937  8805 net.cpp:137] Memory required for data: 18422272
I0424 21:55:09.919981  8805 layer_factory.hpp:77] Creating layer loss
I0424 21:55:09.920028  8805 net.cpp:84] Creating Layer loss
I0424 21:55:09.920070  8805 net.cpp:406] loss <- ip2
I0424 21:55:09.920112  8805 net.cpp:406] loss <- label
I0424 21:55:09.920159  8805 net.cpp:380] loss -> loss
I0424 21:55:09.920215  8805 layer_factory.hpp:77] Creating layer loss
…
I0424 21:55:09.921651  8805 solver.cpp:190] Creating test net (#0) specified by net file: lenet_train_test.prototxt
I0424 21:55:09.921751  8805 net.cpp:294] The NetState phase (1) differed from the phase (0) specified by a rule in layer mnist
I0424 21:55:09.921918  8805 net.cpp:51] Initializing net from parameters: 
name: "LeNet"
state {
  phase: TEST
}
layer {
  name: "mnist"
  type: "Data"
  top: "data"
  top: "label"
  include {
    phase: TEST
  }
  transform_param {
    scale: 0.00390625
  }
  data_param {
    source: "fer2013_val_lmdb"
    batch_size: 100
    backend: LMDB
  }
}
layer {
  name: "conv1"
  type: "Convolution"
  bottom: "data"
  top: "conv1"
  param {
    lr_mult: 1
  }
  param {
    lr_mult: 2
  }
  convolution_param {
    num_output: 20
    kernel_size: 5
    stride: 1
    weight_filler {
      type: "xavier"
    }
    bias_filler {
      type: "constant"
    }
  }
}
layer {
  name: "pool1"
  type: "Pooling"
  bottom: "conv1"
  top: "pool1"
  pooling_param {
    pool: MAX
    kernel_size: 2
    stride: 2
  }
}
layer {
  name: "conv2"
  type: "Convolution"
  bottom: "pool1"
  top: "conv2"
  param {
    lr_mult: 1
  }
  param {
    lr_mult: 2
  }
  convolution_param {
    num_output: 50
    kernel_size: 5
    stride: 1
    weight_filler {
      type: "xavier"
    }
    bias_filler {
      type: "constant"
    }
  }
}
layer {
  name: "pool2"
  type: "Pooling"
  bottom: "conv2"
  top: "pool2"
  pooling_param {
    pool: MAX
    kernel_size: 2
    stride: 2
  }
}
layer {
  name: "ip1"
  type: "InnerProduct"
  bottom: "pool2"
  top: "ip1"
  param {
    lr_mult: 1
  }
  param {
    lr_mult: 2
  }
  inner_product_param {
    num_output: 500
    weight_filler {
      type: "xavier"
    }
    bias_filler {
      type: "constant"
    }
  }
}
layer {
  name: "relu1"
  type: "ReLU"
  bottom: "ip1"
  top: "ip1"
}
layer {
  name: "ip2"
  type: "InnerProduct"
  bottom: "ip1"
  top: "ip2"
  param {
    lr_mult: 1
  }
  param {
    lr_mult: 2
  }
  inner_product_param {
    num_output: 7
    weight_filler {
      type: "xavier"
    }
    bias_filler {
      type: "constant"
    }
  }
}
layer {
  name: "accuracy"
  type: "Accuracy"
  bottom: "ip2"
  bottom: "label"
  top: "accuracy"
  include {
    phase: TEST
  }
}
layer {
  name: "loss"
  type: "SoftmaxWithLoss"
  bottom: "ip2"
  bottom: "label"
  top: "loss"
}
I0424 21:55:09.924530  8805 layer_factory.hpp:77] Creating layer mnist
I0424 21:55:09.924685  8805 db_lmdb.cpp:35] Opened lmdb fer2013_val_lmdb
I0424 21:55:09.924757  8805 net.cpp:84] Creating Layer mnist
I0424 21:55:09.924804  8805 net.cpp:380] mnist -> data
I0424 21:55:09.924854  8805 net.cpp:380] mnist -> label
I0424 21:55:09.925011  8805 data_layer.cpp:45] output data size: 100,1,48,48
I0424 21:55:09.942543  8805 net.cpp:122] Setting up mnist
I0424 21:55:09.944475  8805 net.cpp:129] Top shape: 100 1 48 48 (230400)
I0424 21:55:09.944577  8805 net.cpp:129] Top shape: 100 (100)
I0424 21:55:09.944624  8805 net.cpp:137] Memory required for data: 922000
I0424 21:55:09.944664  8805 layer_factory.hpp:77] Creating layer label_mnist_1_split
I0424 21:55:09.944726  8805 net.cpp:84] Creating Layer label_mnist_1_split
I0424 21:55:09.944767  8805 net.cpp:406] label_mnist_1_split <- label
I0424 21:55:09.944824  8805 net.cpp:380] label_mnist_1_split -> label_mnist_1_split_0
I0424 21:55:09.944869  8805 net.cpp:380] label_mnist_1_split -> label_mnist_1_split_1
I0424 21:55:09.944989  8805 net.cpp:122] Setting up label_mnist_1_split
I0424 21:55:09.945051  8805 net.cpp:129] Top shape: 100 (100)
I0424 21:55:09.945089  8805 net.cpp:129] Top shape: 100 (100)
I0424 21:55:09.945125  8805 net.cpp:137] Memory required for data: 922800
I0424 21:55:09.945161  8805 layer_factory.hpp:77] Creating layer conv1
I0424 21:55:09.945209  8805 net.cpp:84] Creating Layer conv1
I0424 21:55:09.945250  8805 net.cpp:406] conv1 <- data
I0424 21:55:09.948464  8805 net.cpp:380] conv1 -> conv1
I0424 21:55:09.950460  8805 net.cpp:122] Setting up conv1
I0424 21:55:09.956460  8805 net.cpp:129] Top shape: 100 20 44 44 (3872000)
I0424 21:55:09.956554  8805 net.cpp:137] Memory required for data: 16410800
I0424 21:55:09.956719  8805 layer_factory.hpp:77] Creating layer pool1
I0424 21:55:09.956815  8805 net.cpp:84] Creating Layer pool1
I0424 21:55:09.956861  8805 net.cpp:406] pool1 <- conv1
I0424 21:55:09.956910  8805 net.cpp:380] pool1 -> pool1
I0424 21:55:09.957029  8805 net.cpp:122] Setting up pool1
I0424 21:55:09.957092  8805 net.cpp:129] Top shape: 100 20 22 22 (968000)
I0424 21:55:09.957130  8805 net.cpp:137] Memory required for data: 20282800
I0424 21:55:09.957168  8805 layer_factory.hpp:77] Creating layer conv2
I0424 21:55:09.957219  8805 net.cpp:84] Creating Layer conv2
I0424 21:55:09.957278  8805 net.cpp:406] conv2 <- pool1
I0424 21:55:09.957342  8805 net.cpp:380] conv2 -> conv2
I0424 21:55:09.961083  8805 net.cpp:122] Setting up conv2
I0424 21:55:09.964496  8805 net.cpp:129] Top shape: 100 50 18 18 (1620000)
I0424 21:55:09.964596  8805 net.cpp:137] Memory required for data: 26762800
I0424 21:55:09.964645  8805 layer_factory.hpp:77] Creating layer pool2
I0424 21:55:09.964689  8805 net.cpp:84] Creating Layer pool2
I0424 21:55:09.964735  8805 net.cpp:406] pool2 <- conv2
I0424 21:55:09.964777  8805 net.cpp:380] pool2 -> pool2
I0424 21:55:09.964872  8805 net.cpp:122] Setting up pool2
I0424 21:55:09.964936  8805 net.cpp:129] Top shape: 100 50 9 9 (405000)
I0424 21:55:09.964974  8805 net.cpp:137] Memory required for data: 28382800
I0424 21:55:09.965010  8805 layer_factory.hpp:77] Creating layer ip1
I0424 21:55:09.965051  8805 net.cpp:84] Creating Layer ip1
I0424 21:55:09.965091  8805 net.cpp:406] ip1 <- pool2
I0424 21:55:09.965134  8805 net.cpp:380] ip1 -> ip1
I0424 21:55:10.007771  8805 net.cpp:122] Setting up ip1
I0424 21:55:10.011152  8805 net.cpp:129] Top shape: 100 500 (50000)
I0424 21:55:10.011250  8805 net.cpp:137] Memory required for data: 28582800
I0424 21:55:10.011335  8805 layer_factory.hpp:77] Creating layer relu1
I0424 21:55:10.011396  8805 net.cpp:84] Creating Layer relu1
I0424 21:55:10.011446  8805 net.cpp:406] relu1 <- ip1
I0424 21:55:10.011512  8805 net.cpp:367] relu1 -> ip1 (in-place)
I0424 21:55:10.012205  8805 net.cpp:122] Setting up relu1
I0424 21:55:10.012289  8805 net.cpp:129] Top shape: 100 500 (50000)
I0424 21:55:10.012368  8805 net.cpp:137] Memory required for data: 28782800
I0424 21:55:10.012414  8805 layer_factory.hpp:77] Creating layer ip2
I0424 21:55:10.012483  8805 net.cpp:84] Creating Layer ip2
I0424 21:55:10.012526  8805 net.cpp:406] ip2 <- ip1
I0424 21:55:10.012568  8805 net.cpp:380] ip2 -> ip2
I0424 21:55:10.012758  8805 net.cpp:122] Setting up ip2
I0424 21:55:10.012816  8805 net.cpp:129] Top shape: 100 7 (700)
I0424 21:55:10.012852  8805 net.cpp:137] Memory required for data: 28785600
I0424 21:55:10.012890  8805 layer_factory.hpp:77] Creating layer ip2_ip2_0_split
I0424 21:55:10.012948  8805 net.cpp:84] Creating Layer ip2_ip2_0_split
I0424 21:55:10.013005  8805 net.cpp:406] ip2_ip2_0_split <- ip2
I0424 21:55:10.013042  8805 net.cpp:380] ip2_ip2_0_split -> ip2_ip2_0_split_0
I0424 21:55:10.013087  8805 net.cpp:380] ip2_ip2_0_split -> ip2_ip2_0_split_1
I0424 21:55:10.013177  8805 net.cpp:122] Setting up ip2_ip2_0_split
I0424 21:55:10.013265  8805 net.cpp:129] Top shape: 100 7 (700)
I0424 21:55:10.013341  8805 net.cpp:129] Top shape: 100 7 (700)
I0424 21:55:10.013394  8805 net.cpp:137] Memory required for data: 28791200
I0424 21:55:10.013430  8805 layer_factory.hpp:77] Creating layer accuracy
I0424 21:55:10.013476  8805 net.cpp:84] Creating Layer accuracy
I0424 21:55:10.013515  8805 net.cpp:406] accuracy <- ip2_ip2_0_split_0
I0424 21:55:10.013555  8805 net.cpp:406] accuracy <- label_mnist_1_split_0
I0424 21:55:10.013612  8805 net.cpp:380] accuracy -> accuracy
…
