…
I0424 00:29:25.573976  5166 net.cpp:294] The NetState phase (0) differed from the phase (1) specified by a rule in layer accuracy
I0424 00:29:25.574127  5166 net.cpp:51] Initializing net from parameters: 
name: "AlexNet"
state {
  phase: TRAIN
  level: 0
  stage: ""
}
layer {
  name: "data"
  type: "Data"
  top: "data"
  top: "label"
  include {
    phase: TRAIN
  }
  transform_param {
    mirror: true
    crop_size: 48
    mean_file: "fer2013_mean.binaryproto"
  }
  data_param {
    source: "fer2013_train_lmdb"
    batch_size: 256
    backend: LMDB
  }
}
layer {
  name: "conv1"
  type: "Convolution"
  bottom: "data"
  top: "conv1"
  param {
    lr_mult: 1
    decay_mult: 1
  }
  param {
    lr_mult: 2
    decay_mult: 0
  }
  convolution_param {
    num_output: 96
    kernel_size: 11
    stride: 4
    weight_filler {
      type: "gaussian"
      std: 0.01
    }
    bias_filler {
      type: "constant"
      value: 0
    }
  }
}
layer {
  name: "relu1"
  type: "ReLU"
  bottom: "conv1"
  top: "conv1"
}
layer {
  name: "norm1"
  type: "LRN"
  bottom: "conv1"
  top: "norm1"
  lrn_param {
    local_size: 5
    alpha: 0.0001
    beta: 0.75
  }
}
layer {
  name: "pool1"
  type: "Pooling"
  bottom: "norm1"
  top: "pool1"
  pooling_param {
    pool: MAX
    kernel_size: 3
    stride: 2
  }
}
layer {
  name: "conv2"
  type: "Convolution"
  bottom: "pool1"
  top: "conv2"
  param {
    lr_mult: 1
    decay_mult: 1
  }
  param {
    lr_mult: 2
    decay_mult: 0
  }
  convolution_param {
    num_output: 256
    pad: 2
    kernel_size: 5
    group: 2
    weight_filler {
      type: "gaussian"
      std: 0.01
    }
    bias_filler {
      type: "constant"
      value: 0.1
    }
  }
}
layer {
  name: "relu2"
  type: "ReLU"
  bottom: "conv2"
  top: "conv2"
}
layer {
  name: "norm2"
  type: "LRN"
  bottom: "conv2"
  top: "norm2"
  lrn_param {
    local_size: 5
    alpha: 0.0001
    beta: 0.75
  }
}
layer {
  name: "pool2"
  type: "Pooling"
  bottom: "norm2"
  top: "pool2"
  pooling_param {
    pool: MAX
    kernel_size: 3
    stride: 2
  }
}
layer {
  name: "conv3"
  type: "Convolution"
  bottom: "pool2"
  top: "conv3"
  param {
    lr_mult: 1
    decay_mult: 1
  }
  param {
    lr_mult: 2
    decay_mult: 0
  }
  convolution_param {
    num_output: 384
    pad: 1
    kernel_size: 3
    weight_filler {
      type: "gaussian"
      std: 0.01
    }
    bias_filler {
      type: "constant"
      value: 0
    }
  }
}
layer {
  name: "relu3"
  type: "ReLU"
  bottom: "conv3"
  top: "conv3"
}
layer {
  name: "conv4"
  type: "Convolution"
  bottom: "conv3"
  top: "conv4"
  param {
    lr_mult: 1
    decay_mult: 1
  }
  param {
    lr_mult: 2
    decay_mult: 0
  }
  convolution_param {
    num_output: 384
    pad: 1
    kernel_size: 3
    group: 2
    weight_filler {
      type: "gaussian"
      std: 0.01
    }
    bias_filler {
      type: "constant"
      value: 0.1
    }
  }
}
layer {
  name: "relu4"
  type: "ReLU"
  bottom: "conv4"
  top: "conv4"
}
layer {
  name: "conv5"
  type: "Convolution"
  bottom: "conv4"
  top: "conv5"
  param {
    lr_mult: 1
    decay_mult: 1
  }
  param {
    lr_mult: 2
    decay_mult: 0
  }
  convolution_param {
    num_output: 256
    pad: 1
    kernel_size: 3
    group: 2
    weight_filler {
      type: "gaussian"
      std: 0.01
    }
    bias_filler {
      type: "constant"
      value: 0.1
    }
  }
}
layer {
  name: "relu5"
  type: "ReLU"
  bottom: "conv5"
  top: "conv5"
}
layer {
  name: "pool5"
  type: "Pooling"
  bottom: "conv5"
  top: "pool5"
  pooling_param {
    pool: MAX
    kernel_size: 3
    stride: 2
  }
}
layer {
  name: "fc6"
  type: "InnerProduct"
  bottom: "pool5"
  top: "fc6"
  param {
    lr_mult: 1
    decay_mult: 1
  }
  param {
    lr_mult: 2
    decay_mult: 0
  }
  inner_product_param {
    num_output: 4096
    weight_filler {
      type: "gaussian"
      std: 0.005
    }
    bias_filler {
      type: "constant"
      value: 0.1
    }
  }
}
layer {
  name: "relu6"
  type: "ReLU"
  bottom: "fc6"
  top: "fc6"
}
layer {
  name: "drop6"
  type: "Dropout"
  bottom: "fc6"
  top: "fc6"
  dropout_param {
    dropout_ratio: 0.5
  }
}
layer {
  name: "fc7"
  type: "InnerProduct"
  bottom: "fc6"
  top: "fc7"
  param {
    lr_mult: 1
    decay_mult: 1
  }
  param {
    lr_mult: 2
    decay_mult: 0
  }
  inner_product_param {
    num_output: 4096
    weight_filler {
      type: "gaussian"
      std: 0.005
    }
    bias_filler {
      type: "constant"
      value: 0.1
    }
  }
}
layer {
  name: "relu7"
  type: "ReLU"
  bottom: "fc7"
  top: "fc7"
}
layer {
  name: "drop7"
  type: "Dropout"
  bottom: "fc7"
  top: "fc7"
  dropout_param {
    dropout_ratio: 0.5
  }
}
layer {
  name: "fc8"
  type: "InnerProduct"
  bottom: "fc7"
  top: "fc8"
  param {
    lr_mult: 1
    decay_mult: 1
  }
  param {
    lr_mult: 2
    decay_mult: 0
  }
  inner_product_param {
    num_output: 1000
    weight_filler {
      type: "gaussian"
      std: 0.01
    }
    bias_filler {
      type: "constant"
      value: 0
    }
  }
}
layer {
  name: "loss"
  type: "SoftmaxWithLoss"
  bottom: "fc8"
  bottom: "label"
  top: "loss"
}
I0424 00:29:25.574244  5166 layer_factory.hpp:77] Creating layer data
I0424 00:29:25.574331  5166 db_lmdb.cpp:35] Opened lmdb fer2013_train_lmdb
I0424 00:29:25.574368  5166 net.cpp:84] Creating Layer data
I0424 00:29:25.574378  5166 net.cpp:380] data -> data
I0424 00:29:25.574398  5166 net.cpp:380] data -> label
I0424 00:29:25.574409  5166 data_transformer.cpp:25] Loading mean file from: fer2013_mean.binaryproto
I0424 00:29:25.577776  5166 data_layer.cpp:45] output data size: 256,1,48,48
I0424 00:29:25.601850  5166 net.cpp:122] Setting up data
I0424 00:29:25.603265  5166 net.cpp:129] Top shape: 256 1 48 48 (589824)
I0424 00:29:25.603390  5166 net.cpp:129] Top shape: 256 (256)
I0424 00:29:25.603456  5166 net.cpp:137] Memory required for data: 2360320
I0424 00:29:25.603528  5166 layer_factory.hpp:77] Creating layer conv1
I0424 00:29:25.603605  5166 net.cpp:84] Creating Layer conv1
I0424 00:29:25.603704  5166 net.cpp:406] conv1 <- data
I0424 00:29:25.606807  5166 net.cpp:380] conv1 -> conv1
I0424 00:29:28.267652  5166 net.cpp:122] Setting up conv1
I0424 00:29:28.267921  5166 net.cpp:129] Top shape: 256 96 10 10 (2457600)
I0424 00:29:28.268044  5166 net.cpp:137] Memory required for data: 12190720
I0424 00:29:28.268136  5166 layer_factory.hpp:77] Creating layer relu1
I0424 00:29:28.268201  5166 net.cpp:84] Creating Layer relu1
I0424 00:29:28.268257  5166 net.cpp:406] relu1 <- conv1
I0424 00:29:28.271250  5166 net.cpp:367] relu1 -> conv1 (in-place)
I0424 00:29:28.271901  5166 net.cpp:122] Setting up relu1
I0424 00:29:28.272047  5166 net.cpp:129] Top shape: 256 96 10 10 (2457600)
I0424 00:29:28.272099  5166 net.cpp:137] Memory required for data: 22021120
I0424 00:29:28.272150  5166 layer_factory.hpp:77] Creating layer norm1
I0424 00:29:28.272205  5166 net.cpp:84] Creating Layer norm1
I0424 00:29:28.272294  5166 net.cpp:406] norm1 <- conv1
I0424 00:29:28.272368  5166 net.cpp:380] norm1 -> norm1
I0424 00:29:28.272716  5166 net.cpp:122] Setting up norm1
I0424 00:29:28.272796  5166 net.cpp:129] Top shape: 256 96 10 10 (2457600)
I0424 00:29:28.272840  5166 net.cpp:137] Memory required for data: 31851520
I0424 00:29:28.272908  5166 layer_factory.hpp:77] Creating layer pool1
I0424 00:29:28.272972  5166 net.cpp:84] Creating Layer pool1
I0424 00:29:28.273015  5166 net.cpp:406] pool1 <- norm1
I0424 00:29:28.273074  5166 net.cpp:380] pool1 -> pool1
I0424 00:29:28.273169  5166 net.cpp:122] Setting up pool1
I0424 00:29:28.273237  5166 net.cpp:129] Top shape: 256 96 5 5 (614400)
I0424 00:29:28.273280  5166 net.cpp:137] Memory required for data: 34309120
I0424 00:29:28.273330  5166 layer_factory.hpp:77] Creating layer conv2
I0424 00:29:28.273399  5166 net.cpp:84] Creating Layer conv2
I0424 00:29:28.273475  5166 net.cpp:406] conv2 <- pool1
I0424 00:29:28.273524  5166 net.cpp:380] conv2 -> conv2
I0424 00:29:28.296103  5166 net.cpp:122] Setting up conv2
I0424 00:29:28.296270  5166 net.cpp:129] Top shape: 256 256 5 5 (1638400)
I0424 00:29:28.296339  5166 net.cpp:137] Memory required for data: 40862720
I0424 00:29:28.296437  5166 layer_factory.hpp:77] Creating layer relu2
I0424 00:29:28.296527  5166 net.cpp:84] Creating Layer relu2
I0424 00:29:28.296581  5166 net.cpp:406] relu2 <- conv2
I0424 00:29:28.296643  5166 net.cpp:367] relu2 -> conv2 (in-place)
I0424 00:29:28.297431  5166 net.cpp:122] Setting up relu2
I0424 00:29:28.299597  5166 net.cpp:129] Top shape: 256 256 5 5 (1638400)
I0424 00:29:28.299736  5166 net.cpp:137] Memory required for data: 47416320
I0424 00:29:28.299782  5166 layer_factory.hpp:77] Creating layer norm2
I0424 00:29:28.299829  5166 net.cpp:84] Creating Layer norm2
I0424 00:29:28.299872  5166 net.cpp:406] norm2 <- conv2
I0424 00:29:28.299921  5166 net.cpp:380] norm2 -> norm2
I0424 00:29:28.300324  5166 net.cpp:122] Setting up norm2
I0424 00:29:28.300405  5166 net.cpp:129] Top shape: 256 256 5 5 (1638400)
I0424 00:29:28.300449  5166 net.cpp:137] Memory required for data: 53969920
I0424 00:29:28.300493  5166 layer_factory.hpp:77] Creating layer pool2
I0424 00:29:28.300544  5166 net.cpp:84] Creating Layer pool2
I0424 00:29:28.300590  5166 net.cpp:406] pool2 <- norm2
I0424 00:29:28.300635  5166 net.cpp:380] pool2 -> pool2
I0424 00:29:28.300729  5166 net.cpp:122] Setting up pool2
I0424 00:29:28.300846  5166 net.cpp:129] Top shape: 256 256 2 2 (262144)
I0424 00:29:28.300900  5166 net.cpp:137] Memory required for data: 55018496
I0424 00:29:28.300945  5166 layer_factory.hpp:77] Creating layer conv3
I0424 00:29:28.301023  5166 net.cpp:84] Creating Layer conv3
I0424 00:29:28.301070  5166 net.cpp:406] conv3 <- pool2
I0424 00:29:28.301120  5166 net.cpp:380] conv3 -> conv3
I0424 00:29:28.339810  5166 net.cpp:122] Setting up conv3
I0424 00:29:28.343255  5166 net.cpp:129] Top shape: 256 384 2 2 (393216)
I0424 00:29:28.343389  5166 net.cpp:137] Memory required for data: 56591360
I0424 00:29:28.343461  5166 layer_factory.hpp:77] Creating layer relu3
I0424 00:29:28.343521  5166 net.cpp:84] Creating Layer relu3
I0424 00:29:28.343571  5166 net.cpp:406] relu3 <- conv3
I0424 00:29:28.343627  5166 net.cpp:367] relu3 -> conv3 (in-place)
I0424 00:29:28.344306  5166 net.cpp:122] Setting up relu3
I0424 00:29:28.351049  5166 net.cpp:129] Top shape: 256 384 2 2 (393216)
I0424 00:29:28.351117  5166 net.cpp:137] Memory required for data: 58164224
I0424 00:29:28.351167  5166 layer_factory.hpp:77] Creating layer conv4
I0424 00:29:28.351222  5166 net.cpp:84] Creating Layer conv4
I0424 00:29:28.351284  5166 net.cpp:406] conv4 <- conv3
I0424 00:29:28.351356  5166 net.cpp:380] conv4 -> conv4
I0424 00:29:28.382297  5166 net.cpp:122] Setting up conv4
I0424 00:29:28.382622  5166 net.cpp:129] Top shape: 256 384 2 2 (393216)
I0424 00:29:28.382735  5166 net.cpp:137] Memory required for data: 59737088
I0424 00:29:28.382817  5166 layer_factory.hpp:77] Creating layer relu4
I0424 00:29:28.382956  5166 net.cpp:84] Creating Layer relu4
I0424 00:29:28.387249  5166 net.cpp:406] relu4 <- conv4
I0424 00:29:28.387341  5166 net.cpp:367] relu4 -> conv4 (in-place)
I0424 00:29:28.390202  5166 net.cpp:122] Setting up relu4
I0424 00:29:28.390323  5166 net.cpp:129] Top shape: 256 384 2 2 (393216)
I0424 00:29:28.390385  5166 net.cpp:137] Memory required for data: 61309952
I0424 00:29:28.390450  5166 layer_factory.hpp:77] Creating layer conv5
I0424 00:29:28.390511  5166 net.cpp:84] Creating Layer conv5
I0424 00:29:28.390560  5166 net.cpp:406] conv5 <- conv4
I0424 00:29:28.390622  5166 net.cpp:380] conv5 -> conv5
I0424 00:29:28.422397  5166 net.cpp:122] Setting up conv5
I0424 00:29:28.423262  5166 net.cpp:129] Top shape: 256 256 2 2 (262144)
I0424 00:29:28.423398  5166 net.cpp:137] Memory required for data: 62358528
I0424 00:29:28.423482  5166 layer_factory.hpp:77] Creating layer relu5
I0424 00:29:28.423540  5166 net.cpp:84] Creating Layer relu5
I0424 00:29:28.423611  5166 net.cpp:406] relu5 <- conv5
I0424 00:29:28.423689  5166 net.cpp:367] relu5 -> conv5 (in-place)
I0424 00:29:28.427214  5166 net.cpp:122] Setting up relu5
I0424 00:29:28.427366  5166 net.cpp:129] Top shape: 256 256 2 2 (262144)
I0424 00:29:28.427423  5166 net.cpp:137] Memory required for data: 63407104
I0424 00:29:28.427479  5166 layer_factory.hpp:77] Creating layer pool5
I0424 00:29:28.427542  5166 net.cpp:84] Creating Layer pool5
I0424 00:29:28.427592  5166 net.cpp:406] pool5 <- conv5
I0424 00:29:28.427644  5166 net.cpp:380] pool5 -> pool5
I0424 00:29:28.427747  5166 net.cpp:122] Setting up pool5
I0424 00:29:28.427800  5166 net.cpp:129] Top shape: 256 256 1 1 (65536)
I0424 00:29:28.427847  5166 net.cpp:137] Memory required for data: 63669248
I0424 00:29:28.427891  5166 layer_factory.hpp:77] Creating layer fc6
I0424 00:29:28.427947  5166 net.cpp:84] Creating Layer fc6
I0424 00:29:28.427995  5166 net.cpp:406] fc6 <- pool5
I0424 00:29:28.428043  5166 net.cpp:380] fc6 -> fc6
I0424 00:29:28.463162  5166 net.cpp:122] Setting up fc6
I0424 00:29:28.463326  5166 net.cpp:129] Top shape: 256 4096 (1048576)
I0424 00:29:28.467248  5166 net.cpp:137] Memory required for data: 67863552
I0424 00:29:28.467350  5166 layer_factory.hpp:77] Creating layer relu6
I0424 00:29:28.467419  5166 net.cpp:84] Creating Layer relu6
I0424 00:29:28.467476  5166 net.cpp:406] relu6 <- fc6
I0424 00:29:28.467536  5166 net.cpp:367] relu6 -> fc6 (in-place)
I0424 00:29:28.468401  5166 net.cpp:122] Setting up relu6
I0424 00:29:28.475250  5166 net.cpp:129] Top shape: 256 4096 (1048576)
I0424 00:29:28.475368  5166 net.cpp:137] Memory required for data: 72057856
I0424 00:29:28.475425  5166 layer_factory.hpp:77] Creating layer drop6
I0424 00:29:28.475476  5166 net.cpp:84] Creating Layer drop6
I0424 00:29:28.475524  5166 net.cpp:406] drop6 <- fc6
I0424 00:29:28.475570  5166 net.cpp:367] drop6 -> fc6 (in-place)
I0424 00:29:28.475652  5166 net.cpp:122] Setting up drop6
I0424 00:29:28.475704  5166 net.cpp:129] Top shape: 256 4096 (1048576)
I0424 00:29:28.475746  5166 net.cpp:137] Memory required for data: 76252160
I0424 00:29:28.475790  5166 layer_factory.hpp:77] Creating layer fc7
I0424 00:29:28.475839  5166 net.cpp:84] Creating Layer fc7
I0424 00:29:28.475883  5166 net.cpp:406] fc7 <- fc6
I0424 00:29:28.475931  5166 net.cpp:380] fc7 -> fc7
I0424 00:29:29.378962  5166 net.cpp:122] Setting up fc7
I0424 00:29:29.387255  5166 net.cpp:129] Top shape: 256 4096 (1048576)
I0424 00:29:29.387367  5166 net.cpp:137] Memory required for data: 80446464
I0424 00:29:29.387437  5166 layer_factory.hpp:77] Creating layer relu7
I0424 00:29:29.387519  5166 net.cpp:84] Creating Layer relu7
I0424 00:29:29.387578  5166 net.cpp:406] relu7 <- fc7
I0424 00:29:29.387645  5166 net.cpp:367] relu7 -> fc7 (in-place)
I0424 00:29:29.388037  5166 net.cpp:122] Setting up relu7
I0424 00:29:29.391335  5166 net.cpp:129] Top shape: 256 4096 (1048576)
I0424 00:29:29.391413  5166 net.cpp:137] Memory required for data: 84640768
I0424 00:29:29.391461  5166 layer_factory.hpp:77] Creating layer drop7
I0424 00:29:29.391520  5166 net.cpp:84] Creating Layer drop7
I0424 00:29:29.391566  5166 net.cpp:406] drop7 <- fc7
I0424 00:29:29.391613  5166 net.cpp:367] drop7 -> fc7 (in-place)
I0424 00:29:29.391696  5166 net.cpp:122] Setting up drop7
I0424 00:29:29.391749  5166 net.cpp:129] Top shape: 256 4096 (1048576)
I0424 00:29:29.391793  5166 net.cpp:137] Memory required for data: 88835072
I0424 00:29:29.391835  5166 layer_factory.hpp:77] Creating layer fc8
I0424 00:29:29.391893  5166 net.cpp:84] Creating Layer fc8
I0424 00:29:29.391939  5166 net.cpp:406] fc8 <- fc7
I0424 00:29:29.391986  5166 net.cpp:380] fc8 -> fc8
I0424 00:29:29.672433  5166 net.cpp:122] Setting up fc8
I0424 00:29:29.675266  5166 net.cpp:129] Top shape: 256 1000 (256000)
I0424 00:29:29.675390  5166 net.cpp:137] Memory required for data: 89859072
I0424 00:29:29.675454  5166 layer_factory.hpp:77] Creating layer loss
I0424 00:29:29.675547  5166 net.cpp:84] Creating Layer loss
I0424 00:29:29.675602  5166 net.cpp:406] loss <- fc8
I0424 00:29:29.675660  5166 net.cpp:406] loss <- label
I0424 00:29:29.675719  5166 net.cpp:380] loss -> loss
I0424 00:29:29.675806  5166 layer_factory.hpp:77] Creating layer loss
…
I0424 00:29:29.752368  5166 solver.cpp:190] Creating test net (#0) specified by net file: AlexNet_256_size.prototxt
I0424 00:29:29.752526  5166 net.cpp:294] The NetState phase (1) differed from the phase (0) specified by a rule in layer data
I0424 00:29:29.752812  5166 net.cpp:51] Initializing net from parameters: 
name: "AlexNet"
state {
  phase: TEST
}
layer {
  name: "data"
  type: "Data"
  top: "data"
  top: "label"
  include {
    phase: TEST
  }
  transform_param {
    mirror: false
    crop_size: 48
    mean_file: "fer2013_mean.binaryproto"
  }
  data_param {
    source: "fer2013_train_lmdb"
    batch_size: 50
    backend: LMDB
  }
}
layer {
  name: "conv1"
  type: "Convolution"
  bottom: "data"
  top: "conv1"
  param {
    lr_mult: 1
    decay_mult: 1
  }
  param {
    lr_mult: 2
    decay_mult: 0
  }
  convolution_param {
    num_output: 96
    kernel_size: 11
    stride: 4
    weight_filler {
      type: "gaussian"
      std: 0.01
    }
    bias_filler {
      type: "constant"
      value: 0
    }
  }
}
layer {
  name: "relu1"
  type: "ReLU"
  bottom: "conv1"
  top: "conv1"
}
layer {
  name: "norm1"
  type: "LRN"
  bottom: "conv1"
  top: "norm1"
  lrn_param {
    local_size: 5
    alpha: 0.0001
    beta: 0.75
  }
}
layer {
  name: "pool1"
  type: "Pooling"
  bottom: "norm1"
  top: "pool1"
  pooling_param {
    pool: MAX
    kernel_size: 3
    stride: 2
  }
}
layer {
  name: "conv2"
  type: "Convolution"
  bottom: "pool1"
  top: "conv2"
  param {
    lr_mult: 1
    decay_mult: 1
  }
  param {
    lr_mult: 2
    decay_mult: 0
  }
  convolution_param {
    num_output: 256
    pad: 2
    kernel_size: 5
    group: 2
    weight_filler {
      type: "gaussian"
      std: 0.01
    }
    bias_filler {
      type: "constant"
      value: 0.1
    }
  }
}
layer {
  name: "relu2"
  type: "ReLU"
  bottom: "conv2"
  top: "conv2"
}
layer {
  name: "norm2"
  type: "LRN"
  bottom: "conv2"
  top: "norm2"
  lrn_param {
    local_size: 5
    alpha: 0.0001
    beta: 0.75
  }
}
layer {
  name: "pool2"
  type: "Pooling"
  bottom: "norm2"
  top: "pool2"
  pooling_param {
    pool: MAX
    kernel_size: 3
    stride: 2
  }
}
layer {
  name: "conv3"
  type: "Convolution"
  bottom: "pool2"
  top: "conv3"
  param {
    lr_mult: 1
    decay_mult: 1
  }
  param {
    lr_mult: 2
    decay_mult: 0
  }
  convolution_param {
    num_output: 384
    pad: 1
    kernel_size: 3
    weight_filler {
      type: "gaussian"
      std: 0.01
    }
    bias_filler {
      type: "constant"
      value: 0
    }
  }
}
layer {
  name: "relu3"
  type: "ReLU"
  bottom: "conv3"
  top: "conv3"
}
layer {
  name: "conv4"
  type: "Convolution"
  bottom: "conv3"
  top: "conv4"
  param {
    lr_mult: 1
    decay_mult: 1
  }
  param {
    lr_mult: 2
    decay_mult: 0
  }
  convolution_param {
    num_output: 384
    pad: 1
    kernel_size: 3
    group: 2
    weight_filler {
      type: "gaussian"
      std: 0.01
    }
    bias_filler {
      type: "constant"
      value: 0.1
    }
  }
}
layer {
  name: "relu4"
  type: "ReLU"
  bottom: "conv4"
  top: "conv4"
}
layer {
  name: "conv5"
  type: "Convolution"
  bottom: "conv4"
  top: "conv5"
  param {
    lr_mult: 1
    decay_mult: 1
  }
  param {
    lr_mult: 2
    decay_mult: 0
  }
  convolution_param {
    num_output: 256
    pad: 1
    kernel_size: 3
    group: 2
    weight_filler {
      type: "gaussian"
      std: 0.01
    }
    bias_filler {
      type: "constant"
      value: 0.1
    }
  }
}
layer {
  name: "relu5"
  type: "ReLU"
  bottom: "conv5"
  top: "conv5"
}
layer {
  name: "pool5"
  type: "Pooling"
  bottom: "conv5"
  top: "pool5"
  pooling_param {
    pool: MAX
    kernel_size: 3
    stride: 2
  }
}
layer {
  name: "fc6"
  type: "InnerProduct"
  bottom: "pool5"
  top: "fc6"
  param {
    lr_mult: 1
    decay_mult: 1
  }
  param {
    lr_mult: 2
    decay_mult: 0
  }
  inner_product_param {
    num_output: 4096
    weight_filler {
      type: "gaussian"
      std: 0.005
    }
    bias_filler {
      type: "constant"
      value: 0.1
    }
  }
}
layer {
  name: "relu6"
  type: "ReLU"
  bottom: "fc6"
  top: "fc6"
}
layer {
  name: "drop6"
  type: "Dropout"
  bottom: "fc6"
  top: "fc6"
  dropout_param {
    dropout_ratio: 0.5
  }
}
layer {
  name: "fc7"
  type: "InnerProduct"
  bottom: "fc6"
  top: "fc7"
  param {
    lr_mult: 1
    decay_mult: 1
  }
  param {
    lr_mult: 2
    decay_mult: 0
  }
  inner_product_param {
    num_output: 4096
    weight_filler {
      type: "gaussian"
      std: 0.005
    }
    bias_filler {
      type: "constant"
      value: 0.1
    }
  }
}
layer {
  name: "relu7"
  type: "ReLU"
  bottom: "fc7"
  top: "fc7"
}
layer {
  name: "drop7"
  type: "Dropout"
  bottom: "fc7"
  top: "fc7"
  dropout_param {
    dropout_ratio: 0.5
  }
}
layer {
  name: "fc8"
  type: "InnerProduct"
  bottom: "fc7"
  top: "fc8"
  param {
    lr_mult: 1
    decay_mult: 1
  }
  param {
    lr_mult: 2
    decay_mult: 0
  }
  inner_product_param {
    num_output: 1000
    weight_filler {
      type: "gaussian"
      std: 0.01
    }
    bias_filler {
      type: "constant"
      value: 0
    }
  }
}
layer {
  name: "accuracy"
  type: "Accuracy"
  bottom: "fc8"
  bottom: "label"
  top: "accuracy"
  include {
    phase: TEST
  }
}
layer {
  name: "loss"
  type: "SoftmaxWithLoss"
  bottom: "fc8"
  bottom: "label"
  top: "loss"
}
I0424 00:29:29.754202  5166 layer_factory.hpp:77] Creating layer data
I0424 00:29:29.754348  5166 db_lmdb.cpp:35] Opened lmdb fer2013_train_lmdb
I0424 00:29:29.754441  5166 net.cpp:84] Creating Layer data
I0424 00:29:29.755259  5166 net.cpp:380] data -> data
I0424 00:29:29.755339  5166 net.cpp:380] data -> label
I0424 00:29:29.755393  5166 data_transformer.cpp:25] Loading mean file from: fer2013_mean.binaryproto
I0424 00:29:29.755602  5166 data_layer.cpp:45] output data size: 50,1,48,48
I0424 00:29:29.849812  5166 net.cpp:122] Setting up data
I0424 00:29:29.849927  5166 net.cpp:129] Top shape: 50 1 48 48 (115200)
I0424 00:29:29.849987  5166 net.cpp:129] Top shape: 50 (50)
I0424 00:29:29.850069  5166 net.cpp:137] Memory required for data: 461000
I0424 00:29:29.850152  5166 layer_factory.hpp:77] Creating layer label_data_1_split
I0424 00:29:29.850235  5166 net.cpp:84] Creating Layer label_data_1_split
I0424 00:29:29.850286  5166 net.cpp:406] label_data_1_split <- label
I0424 00:29:29.850373  5166 net.cpp:380] label_data_1_split -> label_data_1_split_0
I0424 00:29:29.850440  5166 net.cpp:380] label_data_1_split -> label_data_1_split_1
I0424 00:29:29.850548  5166 net.cpp:122] Setting up label_data_1_split
I0424 00:29:29.850610  5166 net.cpp:129] Top shape: 50 (50)
I0424 00:29:29.850666  5166 net.cpp:129] Top shape: 50 (50)
I0424 00:29:29.850716  5166 net.cpp:137] Memory required for data: 461400
I0424 00:29:29.850769  5166 layer_factory.hpp:77] Creating layer conv1
I0424 00:29:29.850831  5166 net.cpp:84] Creating Layer conv1
I0424 00:29:29.850878  5166 net.cpp:406] conv1 <- data
I0424 00:29:29.850929  5166 net.cpp:380] conv1 -> conv1
I0424 00:29:29.862489  5166 net.cpp:122] Setting up conv1
I0424 00:29:29.866643  5166 net.cpp:129] Top shape: 50 96 10 10 (480000)
I0424 00:29:29.866721  5166 net.cpp:137] Memory required for data: 2381400
I0424 00:29:29.866789  5166 layer_factory.hpp:77] Creating layer relu1
I0424 00:29:29.866837  5166 net.cpp:84] Creating Layer relu1
I0424 00:29:29.866878  5166 net.cpp:406] relu1 <- conv1
I0424 00:29:29.866955  5166 net.cpp:367] relu1 -> conv1 (in-place)
I0424 00:29:29.867604  5166 net.cpp:122] Setting up relu1
I0424 00:29:29.867684  5166 net.cpp:129] Top shape: 50 96 10 10 (480000)
I0424 00:29:29.867760  5166 net.cpp:137] Memory required for data: 4301400
I0424 00:29:29.867823  5166 layer_factory.hpp:77] Creating layer norm1
I0424 00:29:29.867877  5166 net.cpp:84] Creating Layer norm1
I0424 00:29:29.867938  5166 net.cpp:406] norm1 <- conv1
I0424 00:29:29.868016  5166 net.cpp:380] norm1 -> norm1
I0424 00:29:29.868480  5166 net.cpp:122] Setting up norm1
I0424 00:29:29.873423  5166 net.cpp:129] Top shape: 50 96 10 10 (480000)
I0424 00:29:29.873548  5166 net.cpp:137] Memory required for data: 6221400
I0424 00:29:29.873620  5166 layer_factory.hpp:77] Creating layer pool1
I0424 00:29:29.873693  5166 net.cpp:84] Creating Layer pool1
I0424 00:29:29.873744  5166 net.cpp:406] pool1 <- norm1
I0424 00:29:29.874668  5166 net.cpp:380] pool1 -> pool1
I0424 00:29:29.875349  5166 net.cpp:122] Setting up pool1
I0424 00:29:29.875510  5166 net.cpp:129] Top shape: 50 96 5 5 (120000)
I0424 00:29:29.875564  5166 net.cpp:137] Memory required for data: 6701400
I0424 00:29:29.875641  5166 layer_factory.hpp:77] Creating layer conv2
I0424 00:29:29.875721  5166 net.cpp:84] Creating Layer conv2
I0424 00:29:29.875777  5166 net.cpp:406] conv2 <- pool1
I0424 00:29:29.875845  5166 net.cpp:380] conv2 -> conv2
I0424 00:29:29.989769  5166 net.cpp:122] Setting up conv2
I0424 00:29:29.989980  5166 net.cpp:129] Top shape: 50 256 5 5 (320000)
I0424 00:29:29.990064  5166 net.cpp:137] Memory required for data: 7981400
I0424 00:29:29.990154  5166 layer_factory.hpp:77] Creating layer relu2
I0424 00:29:29.990236  5166 net.cpp:84] Creating Layer relu2
I0424 00:29:29.990298  5166 net.cpp:406] relu2 <- conv2
I0424 00:29:29.990376  5166 net.cpp:367] relu2 -> conv2 (in-place)
I0424 00:29:29.991564  5166 net.cpp:122] Setting up relu2
I0424 00:29:29.995690  5166 net.cpp:129] Top shape: 50 256 5 5 (320000)
I0424 00:29:29.995848  5166 net.cpp:137] Memory required for data: 9261400
I0424 00:29:29.995906  5166 layer_factory.hpp:77] Creating layer norm2
I0424 00:29:29.995988  5166 net.cpp:84] Creating Layer norm2
I0424 00:29:29.996052  5166 net.cpp:406] norm2 <- conv2
I0424 00:29:29.996143  5166 net.cpp:380] norm2 -> norm2
I0424 00:29:29.996635  5166 net.cpp:122] Setting up norm2
I0424 00:29:30.003280  5166 net.cpp:129] Top shape: 50 256 5 5 (320000)
I0424 00:29:30.003376  5166 net.cpp:137] Memory required for data: 10541400
I0424 00:29:30.003427  5166 layer_factory.hpp:77] Creating layer pool2
I0424 00:29:30.003494  5166 net.cpp:84] Creating Layer pool2
I0424 00:29:30.003541  5166 net.cpp:406] pool2 <- norm2
I0424 00:29:30.003592  5166 net.cpp:380] pool2 -> pool2
I0424 00:29:30.003697  5166 net.cpp:122] Setting up pool2
I0424 00:29:30.003753  5166 net.cpp:129] Top shape: 50 256 2 2 (51200)
I0424 00:29:30.003800  5166 net.cpp:137] Memory required for data: 10746200
I0424 00:29:30.003846  5166 layer_factory.hpp:77] Creating layer conv3
I0424 00:29:30.003902  5166 net.cpp:84] Creating Layer conv3
I0424 00:29:30.003949  5166 net.cpp:406] conv3 <- pool2
I0424 00:29:30.003998  5166 net.cpp:380] conv3 -> conv3
I0424 00:29:30.040968  5166 net.cpp:122] Setting up conv3
I0424 00:29:30.041110  5166 net.cpp:129] Top shape: 50 384 2 2 (76800)
I0424 00:29:30.041168  5166 net.cpp:137] Memory required for data: 11053400
I0424 00:29:30.041245  5166 layer_factory.hpp:77] Creating layer relu3
I0424 00:29:30.041326  5166 net.cpp:84] Creating Layer relu3
I0424 00:29:30.041380  5166 net.cpp:406] relu3 <- conv3
I0424 00:29:30.043256  5166 net.cpp:367] relu3 -> conv3 (in-place)
I0424 00:29:30.044068  5166 net.cpp:122] Setting up relu3
I0424 00:29:30.044222  5166 net.cpp:129] Top shape: 50 384 2 2 (76800)
I0424 00:29:30.044275  5166 net.cpp:137] Memory required for data: 11360600
I0424 00:29:30.044342  5166 layer_factory.hpp:77] Creating layer conv4
I0424 00:29:30.044409  5166 net.cpp:84] Creating Layer conv4
I0424 00:29:30.044477  5166 net.cpp:406] conv4 <- conv3
I0424 00:29:30.044545  5166 net.cpp:380] conv4 -> conv4
I0424 00:29:30.079871  5166 net.cpp:122] Setting up conv4
I0424 00:29:30.087291  5166 net.cpp:129] Top shape: 50 384 2 2 (76800)
I0424 00:29:30.087424  5166 net.cpp:137] Memory required for data: 11667800
I0424 00:29:30.087507  5166 layer_factory.hpp:77] Creating layer relu4
I0424 00:29:30.087564  5166 net.cpp:84] Creating Layer relu4
I0424 00:29:30.087630  5166 net.cpp:406] relu4 <- conv4
I0424 00:29:30.087689  5166 net.cpp:367] relu4 -> conv4 (in-place)
I0424 00:29:30.088322  5166 net.cpp:122] Setting up relu4
I0424 00:29:30.088474  5166 net.cpp:129] Top shape: 50 384 2 2 (76800)
I0424 00:29:30.088543  5166 net.cpp:137] Memory required for data: 11975000
I0424 00:29:30.088634  5166 layer_factory.hpp:77] Creating layer conv5
I0424 00:29:30.088716  5166 net.cpp:84] Creating Layer conv5
I0424 00:29:30.088796  5166 net.cpp:406] conv5 <- conv4
I0424 00:29:30.088860  5166 net.cpp:380] conv5 -> conv5
I0424 00:29:30.114557  5166 net.cpp:122] Setting up conv5
I0424 00:29:30.119244  5166 net.cpp:129] Top shape: 50 256 2 2 (51200)
I0424 00:29:30.119355  5166 net.cpp:137] Memory required for data: 12179800
I0424 00:29:30.119424  5166 layer_factory.hpp:77] Creating layer relu5
I0424 00:29:30.119484  5166 net.cpp:84] Creating Layer relu5
I0424 00:29:30.119534  5166 net.cpp:406] relu5 <- conv5
I0424 00:29:30.119590  5166 net.cpp:367] relu5 -> conv5 (in-place)
I0424 00:29:30.120005  5166 net.cpp:122] Setting up relu5
I0424 00:29:30.120126  5166 net.cpp:129] Top shape: 50 256 2 2 (51200)
I0424 00:29:30.120180  5166 net.cpp:137] Memory required for data: 12384600
I0424 00:29:30.120231  5166 layer_factory.hpp:77] Creating layer pool5
I0424 00:29:30.120293  5166 net.cpp:84] Creating Layer pool5
I0424 00:29:30.120355  5166 net.cpp:406] pool5 <- conv5
I0424 00:29:30.120415  5166 net.cpp:380] pool5 -> pool5
I0424 00:29:30.120525  5166 net.cpp:122] Setting up pool5
I0424 00:29:30.120580  5166 net.cpp:129] Top shape: 50 256 1 1 (12800)
I0424 00:29:30.120646  5166 net.cpp:137] Memory required for data: 12435800
I0424 00:29:30.121227  5166 layer_factory.hpp:77] Creating layer fc6
I0424 00:29:30.127276  5166 net.cpp:84] Creating Layer fc6
I0424 00:29:30.127396  5166 net.cpp:406] fc6 <- pool5
I0424 00:29:30.127466  5166 net.cpp:380] fc6 -> fc6
I0424 00:29:30.150441  5166 net.cpp:122] Setting up fc6
I0424 00:29:30.165673  5166 net.cpp:129] Top shape: 50 4096 (204800)
I0424 00:29:30.165765  5166 net.cpp:137] Memory required for data: 13255000
I0424 00:29:30.165823  5166 layer_factory.hpp:77] Creating layer relu6
I0424 00:29:30.165910  5166 net.cpp:84] Creating Layer relu6
I0424 00:29:30.165962  5166 net.cpp:406] relu6 <- fc6
I0424 00:29:30.166023  5166 net.cpp:367] relu6 -> fc6 (in-place)
I0424 00:29:30.166636  5166 net.cpp:122] Setting up relu6
I0424 00:29:30.166728  5166 net.cpp:129] Top shape: 50 4096 (204800)
I0424 00:29:30.166781  5166 net.cpp:137] Memory required for data: 14074200
I0424 00:29:30.166832  5166 layer_factory.hpp:77] Creating layer drop6
I0424 00:29:30.166887  5166 net.cpp:84] Creating Layer drop6
I0424 00:29:30.166936  5166 net.cpp:406] drop6 <- fc6
I0424 00:29:30.167027  5166 net.cpp:367] drop6 -> fc6 (in-place)
I0424 00:29:30.167119  5166 net.cpp:122] Setting up drop6
I0424 00:29:30.167210  5166 net.cpp:129] Top shape: 50 4096 (204800)
I0424 00:29:30.167320  5166 net.cpp:137] Memory required for data: 14893400
I0424 00:29:30.167369  5166 layer_factory.hpp:77] Creating layer fc7
I0424 00:29:30.167418  5166 net.cpp:84] Creating Layer fc7
I0424 00:29:30.167476  5166 net.cpp:406] fc7 <- fc6
I0424 00:29:30.167537  5166 net.cpp:380] fc7 -> fc7
I0424 00:29:30.816252  5166 net.cpp:122] Setting up fc7
I0424 00:29:30.822968  5166 net.cpp:129] Top shape: 50 4096 (204800)
I0424 00:29:30.823065  5166 net.cpp:137] Memory required for data: 15712600
I0424 00:29:30.823132  5166 layer_factory.hpp:77] Creating layer relu7
I0424 00:29:30.823199  5166 net.cpp:84] Creating Layer relu7
I0424 00:29:30.823283  5166 net.cpp:406] relu7 <- fc7
I0424 00:29:30.823356  5166 net.cpp:367] relu7 -> fc7 (in-place)
I0424 00:29:30.823766  5166 net.cpp:122] Setting up relu7
I0424 00:29:30.827250  5166 net.cpp:129] Top shape: 50 4096 (204800)
I0424 00:29:30.827307  5166 net.cpp:137] Memory required for data: 16531800
I0424 00:29:30.827410  5166 layer_factory.hpp:77] Creating layer drop7
I0424 00:29:30.827461  5166 net.cpp:84] Creating Layer drop7
I0424 00:29:30.827507  5166 net.cpp:406] drop7 <- fc7
I0424 00:29:30.827572  5166 net.cpp:367] drop7 -> fc7 (in-place)
I0424 00:29:30.827697  5166 net.cpp:122] Setting up drop7
I0424 00:29:30.827746  5166 net.cpp:129] Top shape: 50 4096 (204800)
I0424 00:29:30.827787  5166 net.cpp:137] Memory required for data: 17351000
I0424 00:29:30.827844  5166 layer_factory.hpp:77] Creating layer fc8
I0424 00:29:30.827893  5166 net.cpp:84] Creating Layer fc8
I0424 00:29:30.827934  5166 net.cpp:406] fc8 <- fc7
I0424 00:29:30.827976  5166 net.cpp:380] fc8 -> fc8
I0424 00:29:30.976294  5166 net.cpp:122] Setting up fc8
I0424 00:29:30.983283  5166 net.cpp:129] Top shape: 50 1000 (50000)
I0424 00:29:30.983423  5166 net.cpp:137] Memory required for data: 17551000
I0424 00:29:30.983505  5166 layer_factory.hpp:77] Creating layer fc8_fc8_0_split
I0424 00:29:30.983583  5166 net.cpp:84] Creating Layer fc8_fc8_0_split
I0424 00:29:30.983639  5166 net.cpp:406] fc8_fc8_0_split <- fc8
I0424 00:29:30.983716  5166 net.cpp:380] fc8_fc8_0_split -> fc8_fc8_0_split_0
I0424 00:29:30.983781  5166 net.cpp:380] fc8_fc8_0_split -> fc8_fc8_0_split_1
I0424 00:29:30.983911  5166 net.cpp:122] Setting up fc8_fc8_0_split
I0424 00:29:30.983988  5166 net.cpp:129] Top shape: 50 1000 (50000)
I0424 00:29:30.984041  5166 net.cpp:129] Top shape: 50 1000 (50000)
I0424 00:29:30.984088  5166 net.cpp:137] Memory required for data: 17951000
I0424 00:29:30.984154  5166 layer_factory.hpp:77] Creating layer accuracy
I0424 00:29:30.984212  5166 net.cpp:84] Creating Layer accuracy
I0424 00:29:30.984277  5166 net.cpp:406] accuracy <- fc8_fc8_0_split_0
I0424 00:29:30.984374  5166 net.cpp:406] accuracy <- label_data_1_split_0
I0424 00:29:30.984444  5166 net.cpp:380] accuracy -> accuracy
…
