…
I0424 00:29:11.087039  5049 net.cpp:294] The NetState phase (0) differed from the phase (1) specified by a rule in layer accuracy
I0424 00:29:11.087213  5049 net.cpp:51] Initializing net from parameters: 
name: "AlexNet_450000_iter"
state {
  phase: TRAIN
  level: 0
  stage: ""
}
layer {
  name: "data"
  type: "Data"
  top: "data"
  top: "label"
  include {
    phase: TRAIN
  }
  transform_param {
    mirror: true
    crop_size: 48
    mean_file: "fer2013_mean.binaryproto"
  }
  data_param {
    source: "fer2013_train_lmdb"
    batch_size: 100
    backend: LMDB
  }
}
layer {
  name: "conv1"
  type: "Convolution"
  bottom: "data"
  top: "conv1"
  param {
    lr_mult: 1
    decay_mult: 1
  }
  param {
    lr_mult: 2
    decay_mult: 0
  }
  convolution_param {
    num_output: 96
    kernel_size: 11
    stride: 4
    weight_filler {
      type: "gaussian"
      std: 0.01
    }
    bias_filler {
      type: "constant"
      value: 0
    }
  }
}
layer {
  name: "relu1"
  type: "ReLU"
  bottom: "conv1"
  top: "conv1"
}
layer {
  name: "norm1"
  type: "LRN"
  bottom: "conv1"
  top: "norm1"
  lrn_param {
    local_size: 5
    alpha: 0.0001
    beta: 0.75
  }
}
layer {
  name: "pool1"
  type: "Pooling"
  bottom: "norm1"
  top: "pool1"
  pooling_param {
    pool: MAX
    kernel_size: 3
    stride: 2
  }
}
layer {
  name: "conv2"
  type: "Convolution"
  bottom: "pool1"
  top: "conv2"
  param {
    lr_mult: 1
    decay_mult: 1
  }
  param {
    lr_mult: 2
    decay_mult: 0
  }
  convolution_param {
    num_output: 256
    pad: 2
    kernel_size: 5
    group: 2
    weight_filler {
      type: "gaussian"
      std: 0.01
    }
    bias_filler {
      type: "constant"
      value: 0.1
    }
  }
}
layer {
  name: "relu2"
  type: "ReLU"
  bottom: "conv2"
  top: "conv2"
}
layer {
  name: "norm2"
  type: "LRN"
  bottom: "conv2"
  top: "norm2"
  lrn_param {
    local_size: 5
    alpha: 0.0001
    beta: 0.75
  }
}
layer {
  name: "pool2"
  type: "Pooling"
  bottom: "norm2"
  top: "pool2"
  pooling_param {
    pool: MAX
    kernel_size: 3
    stride: 2
  }
}
layer {
  name: "conv3"
  type: "Convolution"
  bottom: "pool2"
  top: "conv3"
  param {
    lr_mult: 1
    decay_mult: 1
  }
  param {
    lr_mult: 2
    decay_mult: 0
  }
  convolution_param {
    num_output: 384
    pad: 1
    kernel_size: 3
    weight_filler {
      type: "gaussian"
      std: 0.01
    }
    bias_filler {
      type: "constant"
      value: 0
    }
  }
}
layer {
  name: "relu3"
  type: "ReLU"
  bottom: "conv3"
  top: "conv3"
}
layer {
  name: "conv4"
  type: "Convolution"
  bottom: "conv3"
  top: "conv4"
  param {
    lr_mult: 1
    decay_mult: 1
  }
  param {
    lr_mult: 2
    decay_mult: 0
  }
  convolution_param {
    num_output: 384
    pad: 1
    kernel_size: 3
    group: 2
    weight_filler {
      type: "gaussian"
      std: 0.01
    }
    bias_filler {
      type: "constant"
      value: 0.1
    }
  }
}
layer {
  name: "relu4"
  type: "ReLU"
  bottom: "conv4"
  top: "conv4"
}
layer {
  name: "conv5"
  type: "Convolution"
  bottom: "conv4"
  top: "conv5"
  param {
    lr_mult: 1
    decay_mult: 1
  }
  param {
    lr_mult: 2
    decay_mult: 0
  }
  convolution_param {
    num_output: 256
    pad: 1
    kernel_size: 3
    group: 2
    weight_filler {
      type: "gaussian"
      std: 0.01
    }
    bias_filler {
      type: "constant"
      value: 0.1
    }
  }
}
layer {
  name: "relu5"
  type: "ReLU"
  bottom: "conv5"
  top: "conv5"
}
layer {
  name: "pool5"
  type: "Pooling"
  bottom: "conv5"
  top: "pool5"
  pooling_param {
    pool: MAX
    kernel_size: 3
    stride: 2
  }
}
layer {
  name: "fc6"
  type: "InnerProduct"
  bottom: "pool5"
  top: "fc6"
  param {
    lr_mult: 1
    decay_mult: 1
  }
  param {
    lr_mult: 2
    decay_mult: 0
  }
  inner_product_param {
    num_output: 4096
    weight_filler {
      type: "gaussian"
      std: 0.005
    }
    bias_filler {
      type: "constant"
      value: 0.1
    }
  }
}
layer {
  name: "relu6"
  type: "ReLU"
  bottom: "fc6"
  top: "fc6"
}
layer {
  name: "drop6"
  type: "Dropout"
  bottom: "fc6"
  top: "fc6"
  dropout_param {
    dropout_ratio: 0.5
  }
}
layer {
  name: "fc7"
  type: "InnerProduct"
  bottom: "fc6"
  top: "fc7"
  param {
    lr_mult: 1
    decay_mult: 1
  }
  param {
    lr_mult: 2
    decay_mult: 0
  }
  inner_product_param {
    num_output: 4096
    weight_filler {
      type: "gaussian"
      std: 0.005
    }
    bias_filler {
      type: "constant"
      value: 0.1
    }
  }
}
layer {
  name: "relu7"
  type: "ReLU"
  bottom: "fc7"
  top: "fc7"
}
layer {
  name: "drop7"
  type: "Dropout"
  bottom: "fc7"
  top: "fc7"
  dropout_param {
    dropout_ratio: 0.5
  }
}
layer {
  name: "fc8"
  type: "InnerProduct"
  bottom: "fc7"
  top: "fc8"
  param {
    lr_mult: 1
    decay_mult: 1
  }
  param {
    lr_mult: 2
    decay_mult: 0
  }
  inner_product_param {
    num_output: 1000
    weight_filler {
      type: "gaussian"
      std: 0.01
    }
    bias_filler {
      type: "constant"
      value: 0
    }
  }
}
layer {
  name: "loss"
  type: "SoftmaxWithLoss"
  bottom: "fc8"
  bottom: "label"
  top: "loss"
}
I0424 00:29:11.087452  5049 layer_factory.hpp:77] Creating layer data
I0424 00:29:11.087543  5049 db_lmdb.cpp:35] Opened lmdb fer2013_train_lmdb
I0424 00:29:11.087579  5049 net.cpp:84] Creating Layer data
I0424 00:29:11.087589  5049 net.cpp:380] data -> data
I0424 00:29:11.087626  5049 net.cpp:380] data -> label
I0424 00:29:11.087653  5049 data_transformer.cpp:25] Loading mean file from: fer2013_mean.binaryproto
I0424 00:29:11.091003  5049 data_layer.cpp:45] output data size: 100,1,48,48
I0424 00:29:11.103718  5049 net.cpp:122] Setting up data
I0424 00:29:11.103807  5049 net.cpp:129] Top shape: 100 1 48 48 (230400)
I0424 00:29:11.104032  5049 net.cpp:129] Top shape: 100 (100)
I0424 00:29:11.104104  5049 net.cpp:137] Memory required for data: 922000
I0424 00:29:11.104188  5049 layer_factory.hpp:77] Creating layer conv1
I0424 00:29:11.104341  5049 net.cpp:84] Creating Layer conv1
I0424 00:29:11.104413  5049 net.cpp:406] conv1 <- data
I0424 00:29:11.104473  5049 net.cpp:380] conv1 -> conv1
I0424 00:29:12.617175  5049 net.cpp:122] Setting up conv1
I0424 00:29:12.621737  5049 net.cpp:129] Top shape: 100 96 10 10 (960000)
I0424 00:29:12.621814  5049 net.cpp:137] Memory required for data: 4762000
I0424 00:29:12.621917  5049 layer_factory.hpp:77] Creating layer relu1
I0424 00:29:12.622006  5049 net.cpp:84] Creating Layer relu1
I0424 00:29:12.622067  5049 net.cpp:406] relu1 <- conv1
I0424 00:29:12.622129  5049 net.cpp:367] relu1 -> conv1 (in-place)
I0424 00:29:12.627408  5049 net.cpp:122] Setting up relu1
I0424 00:29:12.627530  5049 net.cpp:129] Top shape: 100 96 10 10 (960000)
I0424 00:29:12.627583  5049 net.cpp:137] Memory required for data: 8602000
I0424 00:29:12.627629  5049 layer_factory.hpp:77] Creating layer norm1
I0424 00:29:12.627696  5049 net.cpp:84] Creating Layer norm1
I0424 00:29:12.627746  5049 net.cpp:406] norm1 <- conv1
I0424 00:29:12.627795  5049 net.cpp:380] norm1 -> norm1
I0424 00:29:12.628173  5049 net.cpp:122] Setting up norm1
I0424 00:29:12.628252  5049 net.cpp:129] Top shape: 100 96 10 10 (960000)
I0424 00:29:12.628298  5049 net.cpp:137] Memory required for data: 12442000
I0424 00:29:12.628355  5049 layer_factory.hpp:77] Creating layer pool1
I0424 00:29:12.628439  5049 net.cpp:84] Creating Layer pool1
I0424 00:29:12.628511  5049 net.cpp:406] pool1 <- norm1
I0424 00:29:12.628561  5049 net.cpp:380] pool1 -> pool1
I0424 00:29:12.628692  5049 net.cpp:122] Setting up pool1
I0424 00:29:12.628748  5049 net.cpp:129] Top shape: 100 96 5 5 (240000)
I0424 00:29:12.628794  5049 net.cpp:137] Memory required for data: 13402000
I0424 00:29:12.628839  5049 layer_factory.hpp:77] Creating layer conv2
I0424 00:29:12.628895  5049 net.cpp:84] Creating Layer conv2
I0424 00:29:12.628940  5049 net.cpp:406] conv2 <- pool1
I0424 00:29:12.629024  5049 net.cpp:380] conv2 -> conv2
I0424 00:29:12.645578  5049 net.cpp:122] Setting up conv2
I0424 00:29:12.645704  5049 net.cpp:129] Top shape: 100 256 5 5 (640000)
I0424 00:29:12.645768  5049 net.cpp:137] Memory required for data: 15962000
I0424 00:29:12.645838  5049 layer_factory.hpp:77] Creating layer relu2
I0424 00:29:12.645901  5049 net.cpp:84] Creating Layer relu2
I0424 00:29:12.645957  5049 net.cpp:406] relu2 <- conv2
I0424 00:29:12.646023  5049 net.cpp:367] relu2 -> conv2 (in-place)
I0424 00:29:12.646694  5049 net.cpp:122] Setting up relu2
I0424 00:29:12.646781  5049 net.cpp:129] Top shape: 100 256 5 5 (640000)
I0424 00:29:12.646828  5049 net.cpp:137] Memory required for data: 18522000
I0424 00:29:12.646873  5049 layer_factory.hpp:77] Creating layer norm2
I0424 00:29:12.646922  5049 net.cpp:84] Creating Layer norm2
I0424 00:29:12.646968  5049 net.cpp:406] norm2 <- conv2
I0424 00:29:12.647018  5049 net.cpp:380] norm2 -> norm2
I0424 00:29:12.647404  5049 net.cpp:122] Setting up norm2
I0424 00:29:12.647500  5049 net.cpp:129] Top shape: 100 256 5 5 (640000)
I0424 00:29:12.647547  5049 net.cpp:137] Memory required for data: 21082000
I0424 00:29:12.647593  5049 layer_factory.hpp:77] Creating layer pool2
I0424 00:29:12.647646  5049 net.cpp:84] Creating Layer pool2
I0424 00:29:12.647703  5049 net.cpp:406] pool2 <- norm2
I0424 00:29:12.647759  5049 net.cpp:380] pool2 -> pool2
I0424 00:29:12.647857  5049 net.cpp:122] Setting up pool2
I0424 00:29:12.647912  5049 net.cpp:129] Top shape: 100 256 2 2 (102400)
I0424 00:29:12.647958  5049 net.cpp:137] Memory required for data: 21491600
I0424 00:29:12.648003  5049 layer_factory.hpp:77] Creating layer conv3
I0424 00:29:12.648057  5049 net.cpp:84] Creating Layer conv3
I0424 00:29:12.648104  5049 net.cpp:406] conv3 <- pool2
I0424 00:29:12.648159  5049 net.cpp:380] conv3 -> conv3
I0424 00:29:12.675791  5049 net.cpp:122] Setting up conv3
I0424 00:29:12.675890  5049 net.cpp:129] Top shape: 100 384 2 2 (153600)
I0424 00:29:12.675941  5049 net.cpp:137] Memory required for data: 22106000
I0424 00:29:12.675997  5049 layer_factory.hpp:77] Creating layer relu3
I0424 00:29:12.676077  5049 net.cpp:84] Creating Layer relu3
I0424 00:29:12.676125  5049 net.cpp:406] relu3 <- conv3
I0424 00:29:12.676189  5049 net.cpp:367] relu3 -> conv3 (in-place)
I0424 00:29:12.677181  5049 net.cpp:122] Setting up relu3
I0424 00:29:12.677315  5049 net.cpp:129] Top shape: 100 384 2 2 (153600)
I0424 00:29:12.677388  5049 net.cpp:137] Memory required for data: 22720400
I0424 00:29:12.677445  5049 layer_factory.hpp:77] Creating layer conv4
I0424 00:29:12.677516  5049 net.cpp:84] Creating Layer conv4
I0424 00:29:12.677579  5049 net.cpp:406] conv4 <- conv3
I0424 00:29:12.677657  5049 net.cpp:380] conv4 -> conv4
I0424 00:29:12.699870  5049 net.cpp:122] Setting up conv4
I0424 00:29:12.700043  5049 net.cpp:129] Top shape: 100 384 2 2 (153600)
I0424 00:29:12.700100  5049 net.cpp:137] Memory required for data: 23334800
I0424 00:29:12.700165  5049 layer_factory.hpp:77] Creating layer relu4
I0424 00:29:12.700235  5049 net.cpp:84] Creating Layer relu4
I0424 00:29:12.700326  5049 net.cpp:406] relu4 <- conv4
I0424 00:29:12.700387  5049 net.cpp:367] relu4 -> conv4 (in-place)
I0424 00:29:12.702142  5049 net.cpp:122] Setting up relu4
I0424 00:29:12.702260  5049 net.cpp:129] Top shape: 100 384 2 2 (153600)
I0424 00:29:12.702332  5049 net.cpp:137] Memory required for data: 23949200
I0424 00:29:12.702414  5049 layer_factory.hpp:77] Creating layer conv5
I0424 00:29:12.702488  5049 net.cpp:84] Creating Layer conv5
I0424 00:29:12.702536  5049 net.cpp:406] conv5 <- conv4
I0424 00:29:12.702610  5049 net.cpp:380] conv5 -> conv5
I0424 00:29:12.723573  5049 net.cpp:122] Setting up conv5
I0424 00:29:12.723695  5049 net.cpp:129] Top shape: 100 256 2 2 (102400)
I0424 00:29:12.723755  5049 net.cpp:137] Memory required for data: 24358800
I0424 00:29:12.723822  5049 layer_factory.hpp:77] Creating layer relu5
I0424 00:29:12.723883  5049 net.cpp:84] Creating Layer relu5
I0424 00:29:12.723954  5049 net.cpp:406] relu5 <- conv5
I0424 00:29:12.724032  5049 net.cpp:367] relu5 -> conv5 (in-place)
I0424 00:29:12.724767  5049 net.cpp:122] Setting up relu5
I0424 00:29:12.724937  5049 net.cpp:129] Top shape: 100 256 2 2 (102400)
I0424 00:29:12.725001  5049 net.cpp:137] Memory required for data: 24768400
I0424 00:29:12.725080  5049 layer_factory.hpp:77] Creating layer pool5
I0424 00:29:12.725153  5049 net.cpp:84] Creating Layer pool5
I0424 00:29:12.725203  5049 net.cpp:406] pool5 <- conv5
I0424 00:29:12.725271  5049 net.cpp:380] pool5 -> pool5
I0424 00:29:12.725423  5049 net.cpp:122] Setting up pool5
I0424 00:29:12.725477  5049 net.cpp:129] Top shape: 100 256 1 1 (25600)
I0424 00:29:12.725523  5049 net.cpp:137] Memory required for data: 24870800
I0424 00:29:12.725566  5049 layer_factory.hpp:77] Creating layer fc6
I0424 00:29:12.725626  5049 net.cpp:84] Creating Layer fc6
I0424 00:29:12.725673  5049 net.cpp:406] fc6 <- pool5
I0424 00:29:12.725764  5049 net.cpp:380] fc6 -> fc6
I0424 00:29:12.750120  5049 net.cpp:122] Setting up fc6
I0424 00:29:12.750226  5049 net.cpp:129] Top shape: 100 4096 (409600)
I0424 00:29:12.750313  5049 net.cpp:137] Memory required for data: 26509200
I0424 00:29:12.750380  5049 layer_factory.hpp:77] Creating layer relu6
I0424 00:29:12.750465  5049 net.cpp:84] Creating Layer relu6
I0424 00:29:12.750527  5049 net.cpp:406] relu6 <- fc6
I0424 00:29:12.750622  5049 net.cpp:367] relu6 -> fc6 (in-place)
I0424 00:29:12.751415  5049 net.cpp:122] Setting up relu6
I0424 00:29:12.751518  5049 net.cpp:129] Top shape: 100 4096 (409600)
I0424 00:29:12.751581  5049 net.cpp:137] Memory required for data: 28147600
I0424 00:29:12.751642  5049 layer_factory.hpp:77] Creating layer drop6
I0424 00:29:12.751708  5049 net.cpp:84] Creating Layer drop6
I0424 00:29:12.751760  5049 net.cpp:406] drop6 <- fc6
I0424 00:29:12.751811  5049 net.cpp:367] drop6 -> fc6 (in-place)
I0424 00:29:12.751901  5049 net.cpp:122] Setting up drop6
I0424 00:29:12.751956  5049 net.cpp:129] Top shape: 100 4096 (409600)
I0424 00:29:12.752003  5049 net.cpp:137] Memory required for data: 29786000
I0424 00:29:12.752050  5049 layer_factory.hpp:77] Creating layer fc7
I0424 00:29:12.752104  5049 net.cpp:84] Creating Layer fc7
I0424 00:29:12.752152  5049 net.cpp:406] fc7 <- fc6
I0424 00:29:12.752202  5049 net.cpp:380] fc7 -> fc7
I0424 00:29:13.151089  5049 net.cpp:122] Setting up fc7
I0424 00:29:13.151438  5049 net.cpp:129] Top shape: 100 4096 (409600)
I0424 00:29:13.151535  5049 net.cpp:137] Memory required for data: 31424400
I0424 00:29:13.151612  5049 layer_factory.hpp:77] Creating layer relu7
I0424 00:29:13.151681  5049 net.cpp:84] Creating Layer relu7
I0424 00:29:13.151752  5049 net.cpp:406] relu7 <- fc7
I0424 00:29:13.151816  5049 net.cpp:367] relu7 -> fc7 (in-place)
I0424 00:29:13.152225  5049 net.cpp:122] Setting up relu7
I0424 00:29:13.152906  5049 net.cpp:129] Top shape: 100 4096 (409600)
I0424 00:29:13.153002  5049 net.cpp:137] Memory required for data: 33062800
I0424 00:29:13.153053  5049 layer_factory.hpp:77] Creating layer drop7
I0424 00:29:13.153110  5049 net.cpp:84] Creating Layer drop7
I0424 00:29:13.153158  5049 net.cpp:406] drop7 <- fc7
I0424 00:29:13.153226  5049 net.cpp:367] drop7 -> fc7 (in-place)
I0424 00:29:13.153316  5049 net.cpp:122] Setting up drop7
I0424 00:29:13.153369  5049 net.cpp:129] Top shape: 100 4096 (409600)
I0424 00:29:13.153430  5049 net.cpp:137] Memory required for data: 34701200
I0424 00:29:13.153487  5049 layer_factory.hpp:77] Creating layer fc8
I0424 00:29:13.153558  5049 net.cpp:84] Creating Layer fc8
I0424 00:29:13.153620  5049 net.cpp:406] fc8 <- fc7
I0424 00:29:13.153709  5049 net.cpp:380] fc8 -> fc8
I0424 00:29:13.286195  5049 net.cpp:122] Setting up fc8
I0424 00:29:13.291256  5049 net.cpp:129] Top shape: 100 1000 (100000)
I0424 00:29:13.291374  5049 net.cpp:137] Memory required for data: 35101200
I0424 00:29:13.292665  5049 layer_factory.hpp:77] Creating layer loss
I0424 00:29:13.292752  5049 net.cpp:84] Creating Layer loss
I0424 00:29:13.292816  5049 net.cpp:406] loss <- fc8
I0424 00:29:13.292877  5049 net.cpp:406] loss <- label
I0424 00:29:13.292937  5049 net.cpp:380] loss -> loss
I0424 00:29:13.293005  5049 layer_factory.hpp:77] Creating layer loss
…
I0424 00:29:13.301959  5049 solver.cpp:190] Creating test net (#0) specified by net file: AlexNet_450000_iter.prototxt
I0424 00:29:13.302049  5049 net.cpp:294] The NetState phase (1) differed from the phase (0) specified by a rule in layer data
I0424 00:29:13.303344  5049 net.cpp:51] Initializing net from parameters: 
name: "AlexNet_450000_iter"
state {
  phase: TEST
}
layer {
  name: "data"
  type: "Data"
  top: "data"
  top: "label"
  include {
    phase: TEST
  }
  transform_param {
    mirror: false
    crop_size: 48
    mean_file: "fer2013_mean.binaryproto"
  }
  data_param {
    source: "fer2013_train_lmdb"
    batch_size: 50
    backend: LMDB
  }
}
layer {
  name: "conv1"
  type: "Convolution"
  bottom: "data"
  top: "conv1"
  param {
    lr_mult: 1
    decay_mult: 1
  }
  param {
    lr_mult: 2
    decay_mult: 0
  }
  convolution_param {
    num_output: 96
    kernel_size: 11
    stride: 4
    weight_filler {
      type: "gaussian"
      std: 0.01
    }
    bias_filler {
      type: "constant"
      value: 0
    }
  }
}
layer {
  name: "relu1"
  type: "ReLU"
  bottom: "conv1"
  top: "conv1"
}
layer {
  name: "norm1"
  type: "LRN"
  bottom: "conv1"
  top: "norm1"
  lrn_param {
    local_size: 5
    alpha: 0.0001
    beta: 0.75
  }
}
layer {
  name: "pool1"
  type: "Pooling"
  bottom: "norm1"
  top: "pool1"
  pooling_param {
    pool: MAX
    kernel_size: 3
    stride: 2
  }
}
layer {
  name: "conv2"
  type: "Convolution"
  bottom: "pool1"
  top: "conv2"
  param {
    lr_mult: 1
    decay_mult: 1
  }
  param {
    lr_mult: 2
    decay_mult: 0
  }
  convolution_param {
    num_output: 256
    pad: 2
    kernel_size: 5
    group: 2
    weight_filler {
      type: "gaussian"
      std: 0.01
    }
    bias_filler {
      type: "constant"
      value: 0.1
    }
  }
}
layer {
  name: "relu2"
  type: "ReLU"
  bottom: "conv2"
  top: "conv2"
}
layer {
  name: "norm2"
  type: "LRN"
  bottom: "conv2"
  top: "norm2"
  lrn_param {
    local_size: 5
    alpha: 0.0001
    beta: 0.75
  }
}
layer {
  name: "pool2"
  type: "Pooling"
  bottom: "norm2"
  top: "pool2"
  pooling_param {
    pool: MAX
    kernel_size: 3
    stride: 2
  }
}
layer {
  name: "conv3"
  type: "Convolution"
  bottom: "pool2"
  top: "conv3"
  param {
    lr_mult: 1
    decay_mult: 1
  }
  param {
    lr_mult: 2
    decay_mult: 0
  }
  convolution_param {
    num_output: 384
    pad: 1
    kernel_size: 3
    weight_filler {
      type: "gaussian"
      std: 0.01
    }
    bias_filler {
      type: "constant"
      value: 0
    }
  }
}
layer {
  name: "relu3"
  type: "ReLU"
  bottom: "conv3"
  top: "conv3"
}
layer {
  name: "conv4"
  type: "Convolution"
  bottom: "conv3"
  top: "conv4"
  param {
    lr_mult: 1
    decay_mult: 1
  }
  param {
    lr_mult: 2
    decay_mult: 0
  }
  convolution_param {
    num_output: 384
    pad: 1
    kernel_size: 3
    group: 2
    weight_filler {
      type: "gaussian"
      std: 0.01
    }
    bias_filler {
      type: "constant"
      value: 0.1
    }
  }
}
layer {
  name: "relu4"
  type: "ReLU"
  bottom: "conv4"
  top: "conv4"
}
layer {
  name: "conv5"
  type: "Convolution"
  bottom: "conv4"
  top: "conv5"
  param {
    lr_mult: 1
    decay_mult: 1
  }
  param {
    lr_mult: 2
    decay_mult: 0
  }
  convolution_param {
    num_output: 256
    pad: 1
    kernel_size: 3
    group: 2
    weight_filler {
      type: "gaussian"
      std: 0.01
    }
    bias_filler {
      type: "constant"
      value: 0.1
    }
  }
}
layer {
  name: "relu5"
  type: "ReLU"
  bottom: "conv5"
  top: "conv5"
}
layer {
  name: "pool5"
  type: "Pooling"
  bottom: "conv5"
  top: "pool5"
  pooling_param {
    pool: MAX
    kernel_size: 3
    stride: 2
  }
}
layer {
  name: "fc6"
  type: "InnerProduct"
  bottom: "pool5"
  top: "fc6"
  param {
    lr_mult: 1
    decay_mult: 1
  }
  param {
    lr_mult: 2
    decay_mult: 0
  }
  inner_product_param {
    num_output: 4096
    weight_filler {
      type: "gaussian"
      std: 0.005
    }
    bias_filler {
      type: "constant"
      value: 0.1
    }
  }
}
layer {
  name: "relu6"
  type: "ReLU"
  bottom: "fc6"
  top: "fc6"
}
layer {
  name: "drop6"
  type: "Dropout"
  bottom: "fc6"
  top: "fc6"
  dropout_param {
    dropout_ratio: 0.5
  }
}
layer {
  name: "fc7"
  type: "InnerProduct"
  bottom: "fc6"
  top: "fc7"
  param {
    lr_mult: 1
    decay_mult: 1
  }
  param {
    lr_mult: 2
    decay_mult: 0
  }
  inner_product_param {
    num_output: 4096
    weight_filler {
      type: "gaussian"
      std: 0.005
    }
    bias_filler {
      type: "constant"
      value: 0.1
    }
  }
}
layer {
  name: "relu7"
  type: "ReLU"
  bottom: "fc7"
  top: "fc7"
}
layer {
  name: "drop7"
  type: "Dropout"
  bottom: "fc7"
  top: "fc7"
  dropout_param {
    dropout_ratio: 0.5
  }
}
layer {
  name: "fc8"
  type: "InnerProduct"
  bottom: "fc7"
  top: "fc8"
  param {
    lr_mult: 1
    decay_mult: 1
  }
  param {
    lr_mult: 2
    decay_mult: 0
  }
  inner_product_param {
    num_output: 1000
    weight_filler {
      type: "gaussian"
      std: 0.01
    }
    bias_filler {
      type: "constant"
      value: 0
    }
  }
}
layer {
  name: "accuracy"
  type: "Accuracy"
  bottom: "fc8"
  bottom: "label"
  top: "accuracy"
  include {
    phase: TEST
  }
}
layer {
  name: "loss"
  type: "SoftmaxWithLoss"
  bottom: "fc8"
  bottom: "label"
  top: "loss"
}
I0424 00:29:13.305095  5049 layer_factory.hpp:77] Creating layer data
I0424 00:29:13.305203  5049 db_lmdb.cpp:35] Opened lmdb fer2013_train_lmdb
I0424 00:29:13.305277  5049 net.cpp:84] Creating Layer data
I0424 00:29:13.305327  5049 net.cpp:380] data -> data
I0424 00:29:13.305382  5049 net.cpp:380] data -> label
I0424 00:29:13.305436  5049 data_transformer.cpp:25] Loading mean file from: fer2013_mean.binaryproto
I0424 00:29:13.305634  5049 data_layer.cpp:45] output data size: 50,1,48,48
I0424 00:29:13.315914  5049 net.cpp:122] Setting up data
I0424 00:29:13.316069  5049 net.cpp:129] Top shape: 50 1 48 48 (115200)
I0424 00:29:13.316157  5049 net.cpp:129] Top shape: 50 (50)
I0424 00:29:13.316227  5049 net.cpp:137] Memory required for data: 461000
I0424 00:29:13.316314  5049 layer_factory.hpp:77] Creating layer label_data_1_split
I0424 00:29:13.316398  5049 net.cpp:84] Creating Layer label_data_1_split
I0424 00:29:13.316455  5049 net.cpp:406] label_data_1_split <- label
I0424 00:29:13.316541  5049 net.cpp:380] label_data_1_split -> label_data_1_split_0
I0424 00:29:13.316625  5049 net.cpp:380] label_data_1_split -> label_data_1_split_1
I0424 00:29:13.316781  5049 net.cpp:122] Setting up label_data_1_split
I0424 00:29:13.316865  5049 net.cpp:129] Top shape: 50 (50)
I0424 00:29:13.316927  5049 net.cpp:129] Top shape: 50 (50)
I0424 00:29:13.316969  5049 net.cpp:137] Memory required for data: 461400
I0424 00:29:13.317013  5049 layer_factory.hpp:77] Creating layer conv1
I0424 00:29:13.317066  5049 net.cpp:84] Creating Layer conv1
I0424 00:29:13.317112  5049 net.cpp:406] conv1 <- data
I0424 00:29:13.317167  5049 net.cpp:380] conv1 -> conv1
I0424 00:29:13.323621  5049 net.cpp:122] Setting up conv1
I0424 00:29:13.323894  5049 net.cpp:129] Top shape: 50 96 10 10 (480000)
I0424 00:29:13.323972  5049 net.cpp:137] Memory required for data: 2381400
I0424 00:29:13.324028  5049 layer_factory.hpp:77] Creating layer relu1
I0424 00:29:13.324081  5049 net.cpp:84] Creating Layer relu1
I0424 00:29:13.324337  5049 net.cpp:406] relu1 <- conv1
I0424 00:29:13.324394  5049 net.cpp:367] relu1 -> conv1 (in-place)
I0424 00:29:13.325568  5049 net.cpp:122] Setting up relu1
I0424 00:29:13.326073  5049 net.cpp:129] Top shape: 50 96 10 10 (480000)
I0424 00:29:13.326145  5049 net.cpp:137] Memory required for data: 4301400
I0424 00:29:13.326205  5049 layer_factory.hpp:77] Creating layer norm1
I0424 00:29:13.326259  5049 net.cpp:84] Creating Layer norm1
I0424 00:29:13.326306  5049 net.cpp:406] norm1 <- conv1
I0424 00:29:13.326383  5049 net.cpp:380] norm1 -> norm1
I0424 00:29:13.326804  5049 net.cpp:122] Setting up norm1
I0424 00:29:13.330741  5049 net.cpp:129] Top shape: 50 96 10 10 (480000)
I0424 00:29:13.330847  5049 net.cpp:137] Memory required for data: 6221400
I0424 00:29:13.330895  5049 layer_factory.hpp:77] Creating layer pool1
I0424 00:29:13.330945  5049 net.cpp:84] Creating Layer pool1
I0424 00:29:13.331007  5049 net.cpp:406] pool1 <- norm1
I0424 00:29:13.331089  5049 net.cpp:380] pool1 -> pool1
I0424 00:29:13.331214  5049 net.cpp:122] Setting up pool1
I0424 00:29:13.331293  5049 net.cpp:129] Top shape: 50 96 5 5 (120000)
I0424 00:29:13.331405  5049 net.cpp:137] Memory required for data: 6701400
I0424 00:29:13.331481  5049 layer_factory.hpp:77] Creating layer conv2
I0424 00:29:13.331535  5049 net.cpp:84] Creating Layer conv2
I0424 00:29:13.331583  5049 net.cpp:406] conv2 <- pool1
I0424 00:29:13.331634  5049 net.cpp:380] conv2 -> conv2
I0424 00:29:13.385427  5049 net.cpp:122] Setting up conv2
I0424 00:29:13.385534  5049 net.cpp:129] Top shape: 50 256 5 5 (320000)
I0424 00:29:13.385591  5049 net.cpp:137] Memory required for data: 7981400
I0424 00:29:13.385654  5049 layer_factory.hpp:77] Creating layer relu2
I0424 00:29:13.385759  5049 net.cpp:84] Creating Layer relu2
I0424 00:29:13.385815  5049 net.cpp:406] relu2 <- conv2
I0424 00:29:13.385875  5049 net.cpp:367] relu2 -> conv2 (in-place)
I0424 00:29:13.389314  5049 net.cpp:122] Setting up relu2
I0424 00:29:13.389427  5049 net.cpp:129] Top shape: 50 256 5 5 (320000)
I0424 00:29:13.389485  5049 net.cpp:137] Memory required for data: 9261400
I0424 00:29:13.389565  5049 layer_factory.hpp:77] Creating layer norm2
I0424 00:29:13.389649  5049 net.cpp:84] Creating Layer norm2
I0424 00:29:13.389719  5049 net.cpp:406] norm2 <- conv2
I0424 00:29:13.389793  5049 net.cpp:380] norm2 -> norm2
I0424 00:29:13.390377  5049 net.cpp:122] Setting up norm2
I0424 00:29:13.390483  5049 net.cpp:129] Top shape: 50 256 5 5 (320000)
I0424 00:29:13.390544  5049 net.cpp:137] Memory required for data: 10541400
I0424 00:29:13.390591  5049 layer_factory.hpp:77] Creating layer pool2
I0424 00:29:13.390641  5049 net.cpp:84] Creating Layer pool2
I0424 00:29:13.390748  5049 net.cpp:406] pool2 <- norm2
I0424 00:29:13.395345  5049 net.cpp:380] pool2 -> pool2
I0424 00:29:13.395463  5049 net.cpp:122] Setting up pool2
I0424 00:29:13.395519  5049 net.cpp:129] Top shape: 50 256 2 2 (51200)
I0424 00:29:13.395562  5049 net.cpp:137] Memory required for data: 10746200
I0424 00:29:13.395606  5049 layer_factory.hpp:77] Creating layer conv3
I0424 00:29:13.395659  5049 net.cpp:84] Creating Layer conv3
I0424 00:29:13.395714  5049 net.cpp:406] conv3 <- pool2
I0424 00:29:13.395767  5049 net.cpp:380] conv3 -> conv3
I0424 00:29:13.505995  5049 net.cpp:122] Setting up conv3
I0424 00:29:13.506163  5049 net.cpp:129] Top shape: 50 384 2 2 (76800)
I0424 00:29:13.506255  5049 net.cpp:137] Memory required for data: 11053400
I0424 00:29:13.506356  5049 layer_factory.hpp:77] Creating layer relu3
I0424 00:29:13.506422  5049 net.cpp:84] Creating Layer relu3
I0424 00:29:13.506500  5049 net.cpp:406] relu3 <- conv3
I0424 00:29:13.506588  5049 net.cpp:367] relu3 -> conv3 (in-place)
I0424 00:29:13.507323  5049 net.cpp:122] Setting up relu3
I0424 00:29:13.507416  5049 net.cpp:129] Top shape: 50 384 2 2 (76800)
I0424 00:29:13.507472  5049 net.cpp:137] Memory required for data: 11360600
I0424 00:29:13.507529  5049 layer_factory.hpp:77] Creating layer conv4
I0424 00:29:13.507627  5049 net.cpp:84] Creating Layer conv4
I0424 00:29:13.507730  5049 net.cpp:406] conv4 <- conv3
I0424 00:29:13.507810  5049 net.cpp:380] conv4 -> conv4
I0424 00:29:13.575356  5049 net.cpp:122] Setting up conv4
I0424 00:29:13.575462  5049 net.cpp:129] Top shape: 50 384 2 2 (76800)
I0424 00:29:13.575525  5049 net.cpp:137] Memory required for data: 11667800
I0424 00:29:13.575587  5049 layer_factory.hpp:77] Creating layer relu4
I0424 00:29:13.575664  5049 net.cpp:84] Creating Layer relu4
I0424 00:29:13.575749  5049 net.cpp:406] relu4 <- conv4
I0424 00:29:13.575832  5049 net.cpp:367] relu4 -> conv4 (in-place)
I0424 00:29:13.576562  5049 net.cpp:122] Setting up relu4
I0424 00:29:13.576669  5049 net.cpp:129] Top shape: 50 384 2 2 (76800)
I0424 00:29:13.576735  5049 net.cpp:137] Memory required for data: 11975000
I0424 00:29:13.576792  5049 layer_factory.hpp:77] Creating layer conv5
I0424 00:29:13.576859  5049 net.cpp:84] Creating Layer conv5
I0424 00:29:13.576915  5049 net.cpp:406] conv5 <- conv4
I0424 00:29:13.576974  5049 net.cpp:380] conv5 -> conv5
I0424 00:29:13.643304  5049 net.cpp:122] Setting up conv5
I0424 00:29:13.643460  5049 net.cpp:129] Top shape: 50 256 2 2 (51200)
I0424 00:29:13.643550  5049 net.cpp:137] Memory required for data: 12179800
I0424 00:29:13.643630  5049 layer_factory.hpp:77] Creating layer relu5
I0424 00:29:13.643755  5049 net.cpp:84] Creating Layer relu5
I0424 00:29:13.643834  5049 net.cpp:406] relu5 <- conv5
I0424 00:29:13.643896  5049 net.cpp:367] relu5 -> conv5 (in-place)
I0424 00:29:13.644364  5049 net.cpp:122] Setting up relu5
I0424 00:29:13.647265  5049 net.cpp:129] Top shape: 50 256 2 2 (51200)
I0424 00:29:13.647370  5049 net.cpp:137] Memory required for data: 12384600
I0424 00:29:13.647439  5049 layer_factory.hpp:77] Creating layer pool5
I0424 00:29:13.647544  5049 net.cpp:84] Creating Layer pool5
I0424 00:29:13.647608  5049 net.cpp:406] pool5 <- conv5
I0424 00:29:13.651257  5049 net.cpp:380] pool5 -> pool5
I0424 00:29:13.651420  5049 net.cpp:122] Setting up pool5
I0424 00:29:13.651510  5049 net.cpp:129] Top shape: 50 256 1 1 (12800)
I0424 00:29:13.651582  5049 net.cpp:137] Memory required for data: 12435800
I0424 00:29:13.651634  5049 layer_factory.hpp:77] Creating layer fc6
I0424 00:29:13.651721  5049 net.cpp:84] Creating Layer fc6
I0424 00:29:13.651775  5049 net.cpp:406] fc6 <- pool5
I0424 00:29:13.651830  5049 net.cpp:380] fc6 -> fc6
I0424 00:29:13.726078  5049 net.cpp:122] Setting up fc6
I0424 00:29:13.727979  5049 net.cpp:129] Top shape: 50 4096 (204800)
I0424 00:29:13.728098  5049 net.cpp:137] Memory required for data: 13255000
I0424 00:29:13.728168  5049 layer_factory.hpp:77] Creating layer relu6
I0424 00:29:13.728237  5049 net.cpp:84] Creating Layer relu6
I0424 00:29:13.728302  5049 net.cpp:406] relu6 <- fc6
I0424 00:29:13.728372  5049 net.cpp:367] relu6 -> fc6 (in-place)
I0424 00:29:13.780143  5049 net.cpp:122] Setting up relu6
I0424 00:29:13.780164  5049 net.cpp:129] Top shape: 50 4096 (204800)
I0424 00:29:13.780169  5049 net.cpp:137] Memory required for data: 14074200
I0424 00:29:13.780172  5049 layer_factory.hpp:77] Creating layer drop6
I0424 00:29:13.780179  5049 net.cpp:84] Creating Layer drop6
I0424 00:29:13.780182  5049 net.cpp:406] drop6 <- fc6
I0424 00:29:13.780189  5049 net.cpp:367] drop6 -> fc6 (in-place)
I0424 00:29:13.780225  5049 net.cpp:122] Setting up drop6
I0424 00:29:13.780231  5049 net.cpp:129] Top shape: 50 4096 (204800)
I0424 00:29:13.780233  5049 net.cpp:137] Memory required for data: 14893400
I0424 00:29:13.780236  5049 layer_factory.hpp:77] Creating layer fc7
I0424 00:29:13.780244  5049 net.cpp:84] Creating Layer fc7
I0424 00:29:13.780248  5049 net.cpp:406] fc7 <- fc6
I0424 00:29:13.780254  5049 net.cpp:380] fc7 -> fc7
I0424 00:29:14.207078  5049 net.cpp:122] Setting up fc7
I0424 00:29:14.215029  5049 net.cpp:129] Top shape: 50 4096 (204800)
I0424 00:29:14.215137  5049 net.cpp:137] Memory required for data: 15712600
I0424 00:29:14.215219  5049 layer_factory.hpp:77] Creating layer relu7
I0424 00:29:14.215325  5049 net.cpp:84] Creating Layer relu7
I0424 00:29:14.215389  5049 net.cpp:406] relu7 <- fc7
I0424 00:29:14.215482  5049 net.cpp:367] relu7 -> fc7 (in-place)
I0424 00:29:14.215920  5049 net.cpp:122] Setting up relu7
I0424 00:29:14.216022  5049 net.cpp:129] Top shape: 50 4096 (204800)
I0424 00:29:14.216073  5049 net.cpp:137] Memory required for data: 16531800
I0424 00:29:14.216122  5049 layer_factory.hpp:77] Creating layer drop7
I0424 00:29:14.216177  5049 net.cpp:84] Creating Layer drop7
I0424 00:29:14.216225  5049 net.cpp:406] drop7 <- fc7
I0424 00:29:14.216274  5049 net.cpp:367] drop7 -> fc7 (in-place)
I0424 00:29:14.216373  5049 net.cpp:122] Setting up drop7
I0424 00:29:14.216429  5049 net.cpp:129] Top shape: 50 4096 (204800)
I0424 00:29:14.216480  5049 net.cpp:137] Memory required for data: 17351000
I0424 00:29:14.216529  5049 layer_factory.hpp:77] Creating layer fc8
I0424 00:29:14.216584  5049 net.cpp:84] Creating Layer fc8
I0424 00:29:14.216634  5049 net.cpp:406] fc8 <- fc7
I0424 00:29:14.216711  5049 net.cpp:380] fc8 -> fc8
I0424 00:29:14.300374  5049 net.cpp:122] Setting up fc8
I0424 00:29:14.304847  5049 net.cpp:129] Top shape: 50 1000 (50000)
I0424 00:29:14.304924  5049 net.cpp:137] Memory required for data: 17551000
I0424 00:29:14.304994  5049 layer_factory.hpp:77] Creating layer fc8_fc8_0_split
I0424 00:29:14.305058  5049 net.cpp:84] Creating Layer fc8_fc8_0_split
I0424 00:29:14.305111  5049 net.cpp:406] fc8_fc8_0_split <- fc8
I0424 00:29:14.305176  5049 net.cpp:380] fc8_fc8_0_split -> fc8_fc8_0_split_0
I0424 00:29:14.305260  5049 net.cpp:380] fc8_fc8_0_split -> fc8_fc8_0_split_1
I0424 00:29:14.305397  5049 net.cpp:122] Setting up fc8_fc8_0_split
I0424 00:29:14.305461  5049 net.cpp:129] Top shape: 50 1000 (50000)
I0424 00:29:14.305539  5049 net.cpp:129] Top shape: 50 1000 (50000)
I0424 00:29:14.305608  5049 net.cpp:137] Memory required for data: 17951000
I0424 00:29:14.305663  5049 layer_factory.hpp:77] Creating layer accuracy
I0424 00:29:14.305737  5049 net.cpp:84] Creating Layer accuracy
I0424 00:29:14.305789  5049 net.cpp:406] accuracy <- fc8_fc8_0_split_0
I0424 00:29:14.305858  5049 net.cpp:406] accuracy <- label_data_1_split_0
I0424 00:29:14.305913  5049 net.cpp:380] accuracy -> accuracy
…
